robot_controllers/config/pointfoot/WF_TRON1A/policy/policy.onnx (onnx, 950989 bytes, 10 tensors)

actor.0.weight f4 [512, 138]
0	0x3dcc860e	0.099865064
1	0x3e19dd68	0.15025866
2	0xbcfdb7cd	-0.030971432
3	0x3e7758ac	0.2415492
4	0xbe56db65	-0.2098213
5	0x3d7169a4	0.058938637
6	0x3da8d685	0.08244041
7	0xbb346a75	-0.0027529274
8	0x3ccf553f	0.025309203
9	0x3d9f0d94	0.07766262
10	0x3d845773	0.06461992
11	0xbd1b5281	-0.03792048
12	0x3c57e0be	0.013176141
13	0xbd9477ea	-0.07249434
14	0xbd84496d	-0.06459317
15	0xbc2b3c6a	-0.010451416
16	0xbc993ee3	-0.018706745
17	0x3d084782	0.03327132
18	0xbcbb2ca2	-0.022848431
19	0xbb8bf7ad	-0.0042714686
20	0xbc478867	-0.012178517
21	0xbe14d151	-0.14532973
22	0x3ce46465	0.027879903
23	0xbcef55cb	-0.029215714
24	0x3ceec4d0	0.029146582
25	0xbe1b162c	-0.15145177
26	0xbbe6ce2f	-0.007043622
27	0xbde9f871	-0.114243396
28	0x3b2f86a9	0.0026783145
29	0x3d4f8664	0.050665274
30	0xbd989d20	-0.07451844
31	0xbc219837	-0.009862951
32	0xbd2b02d1	-0.041750733
33	0xbc437d3b	-0.011931713
34	0x3d8aa5f5	0.06769935
35	0xbd4cf122	-0.05003465
36	0xbdd5f3df	-0.10446905
37	0xbb1de32f	-0.002409171
38	0x3d43648f	0.047703322
39	0xbd863216	-0.06552522
40	0x3d36dd83	0.044644844
41	0xbda4ef53	-0.0805346
42	0xbadfca49	-0.0017073835
43	0xbd1816ab	-0.037130993
44	0x3d0b0b25	0.033946175
45	0xbd2d57d2	-0.04232008
46	0xbbe9971a	-0.0071286084
47	0x3d15ac31	0.036541168
48	0xbc10db6b	-0.008841376
49	0x3d917323	0.07102039
50	0x3d3bc0a4	0.045838013
51	0x3bc7a584	0.006092729
52	0x3d53b5f6	0.051687203
53	0x3c5a2138	0.013313584
54	0x3da8b5c2	0.082377926
55	0x3d1cb74c	0.038260743
56	0x3e156dd5	0.14592679
57	0x3e7d0015	0.24707063
58	0x3cee150c	0.02906277
59	0xbd14d285	-0.03633358
60	0xbd69d1af	-0.057084735
61	0xbd4cc737	-0.049994674
62	0x3c4e9ddd	0.01261088
63	0xbd8c7a34	-0.06859246
64	0x3e0bada9	0.13640465
65	0xbdab0914	-0.08351341
66	0x3d3759b5	0.044763286
67	0x3dadc501	0.08484841
68	0x3e0a194a	0.1348621
69	0x3d81444f	0.06311857
70	0xbde1af5a	-0.11019774
71	0xbde92b28	-0.113851845
72	0x3e4b4b7e	0.19853017
73	0x3e663300	0.22480392
74	0x3cd8d1cc	0.026467226
75	0xbb804503	-0.003914477
76	0xbd51dccb	-0.051235955
77	0x3bab0cbc	0.005220024
78	0xbd5ed478	-0.054401845
79	0x3d911e8d	0.07085905
80	0xbd2caa96	-0.04215487
81	0xbc3857b8	-0.0112513825
82	0x3d2ea883	0.042641174
83	0xbca02c29	-0.019552307
84	0x3bef9bf8	0.007312294
85	0xbcaf41e4	-0.021393724
86	0xbd707524	-0.058705464
87	0x3da67326	0.081274316
88	0x3cdedd76	0.02720521
89	0x3b113955	0.0022159417
90	0xbc9764de	-0.018480714
91	0x3c2a1a05	0.01038218
92	0xbcae3bc4	-0.021268733
93	0x3dc46a56	0.095905945
94	0xbcc6c0dd	-0.024261886
95	0x3d88a1de	0.06671499
96	0x3d33f0c8	0.0439308
97	0x3d400e6f	0.046888765
98	0x3c1c9286	0.009556418
99	0x3d272b62	0.040812857
100	0x3c9a78ab	0.018856367
101	0xbd8e36fe	-0.06944083
102	0xbcc58375	-0.024110535
103	0x3da8e82d	0.08247409
104	0xbd1a551d	-0.037678827
105	0x3c0b1bbf	0.008490502
106	0x3d1c5e70	0.038176
107	0xbd1da7e8	-0.038490206
108	0x3da3aa83	0.07991507
109	0x3dd3a4f5	0.103341974
110	0xbd7abb95	-0.06121405
111	0xbd129026	-0.035782002
112	0x3d600494	0.054691866
113	0x3c274a81	0.010210634
114	0x3d87eac4	0.06636575
115	0x3d8657ab	0.0655969
116	0x3d573df1	0.052549306
117	0x3da2136b	0.0791386
118	0x3d6029cc	0.05472736
119	0x3bbdf095	0.005796502
120	0x3b74f5cf	0.0037377959
121	0xbb9d2398	-0.004795503
122	0xbcd0204a	-0.025406022
123	0x3c891831	0.016735168
124	0x3d079f1b	0.03311072
125	0xbb33fcd4	-0.002746393
126	0x3c23ba28	0.009993114
127	0xbd359e34	-0.044340327
128	0x3cad8c16	0.021184962
129	0xbd60a297	-0.054842558
130	0x3cd144da	0.025545526
131	0x3d1aa92c	0.03775899
132	0xbc4bdc2f	-0.012442633
133	0x3d7e6b2f	0.062113937
134	0xbdccce04	-0.10000232
135	0x3db55f19	0.08856029
136	0xbd0bd774	-0.03414102
137	0x3d94a1ae	0.072574005
138	0xbda28c2a	-0.079368904
139	0xbb647a9a	-0.0034863115
140	0x3e22237a	0.15833846
141	0x3dade451	0.084908135
142	0xbd902cf9	-0.07039828
143	0xbd2432d1	-0.040087525
144	0x3db0e7f7	0.08637994
145	0xbc8cbf02	-0.017180923
146	0xbd3aeaee	-0.045634203
147	0xbcb2fa9a	-0.021848012
148	0xbcc1b308	-0.023644939
149	0x3cb2ea73	0.02184031
150	0xbcb2e372	-0.02183697
151	0x3d076513	0.033055376
152	0xbdd53960	-0.10411334
153	0x3dfa8279	0.12231917
154	0x3d0e34af	0.03471821
155	0xbc0249e9	-0.007952192
156	0xbc86f172	-0.016472552
157	0x3d647e29	0.05578438
158	0x3b646b39	0.0034853949
159	0x3e4a9c01	0.19786073
160	0xbe30a04f	-0.17248653
161	0xbdbf3e3e	-0.09338044
162	0x3dbc67b1	0.09199465
163	0xbd06f8c4	-0.032952085
164	0xbe0c8c2b	-0.13725345
165	0xbda2d640	-0.07951021
166	0xbd592b24	-0.053019658
167	0xbdd3341c	-0.103126734
168	0xbd7b5a54	-0.06136544
169	0x3cba1fb1	0.02272019
170	0xbe0930df	-0.13397549
171	0x3cc977e0	0.024593294
172	0xbcf4a453	-0.029863512
173	0x3dcc2888	0.09968668
174	0x3c4fb200	0.012676716
175	0xbde9564b	-0.11393412
176	0xbd354e49	-0.04426411
177	0xbcc23300	-0.02370596
178	0xbdb397ed	-0.08769212
179	0x3d8d6379	0.069037385
180	0x3d81a846	0.06330924
181	0xbd8d498c	-0.068987936
182	0x3dc08161	0.09399677
183	0x3dbf9cd1	0.09356082
184	0xbe7d1d3f	-0.24718188
185	0xbdaeeb21	-0.08540941
186	0xbc4bff22	-0.012450965
187	0x3daac606	0.08338551
188	0x3bdd38ec	0.0067511704
189	0x3da8f195	0.08249203
190	0x3cdd2a0b	0.026997587
191	0xbca05ee1	-0.019576492
192	0xbc8a16bb	-0.016856542
193	0xbad1a2ad	-0.0015993916
194	0xbd6cf446	-0.057850145
195	0xbba3745c	-0.0049882364
196	0xbcd79c97	-0.026319785
197	0x3c5ef485	0.013608103
198	0x3c598170	0.013275489
199	0xbe0ea2c8	-0.13929284
200	0xbe280cff	-0.16411208
201	0x3d0c1c4d	0.034206677
202	0x3ca377fa	0.01995467
203	0xbdcac0dc	-0.09900066
204	0xbca678f0	-0.02032134
205	0x3e0efced	0.13963671
206	0x3e16f99e	0.14743659
207	0xbe77dc46	-0.24205121
208	0x3e1e6bb1	0.15470769
209	0xbc9cf68c	-0.019160531
210	0x3dbabde2	0.091182485
211	0x3b4ea809	0.0031533262
212	0x3d1184ac	0.035526916
213	0x3da4457a	0.08021064
214	0xbd0800ff	-0.033204075
215	0x3ac4e9e6	0.001502332
216	0x3db8577d	0.09001062
217	0x3d623179	0.055222962
218	0xbdced0ff	-0.100984566
219	0xbbbea177	-0.005817588
220	0x3c4134f0	0.011792406
221	0x3d610836	0.05493947
222	0xbd2c2364	-0.04202594
223	0x3d634f3d	0.05549549
224	0x3cbcded5	0.023055473
225	0xbda9991a	-0.08281155
226	0x3c890810	0.016727477
227	0xbdae9516	-0.0852453
228	0x3d2d210b	0.04226784
229	0xbb8317f4	-0.004000658
230	0x3bc16a70	0.005902581
231	0xbd891787	-0.066939406
232	0x3b573084	0.0032835314
233	0xbcf09bd9	-0.029371189
234	0x3b1555a7	0.0022786648
235	0xbd302a19	-0.043008897
236	0x3d61ce1d	0.055128206
237	0x3c938b0f	0.018010644
238	0xbd76ba85	-0.060236473
239	0x3d161242	0.036638506
240	0x3c02f82d	0.00799374
241	0xbaf3870b	-0.0018579675
242	0xbe0e19e8	-0.1387707
243	0xbcdd20a5	-0.026993105
244	0xbb2921ae	-0.0025807428
245	0x3d263d39	0.04058573
246	0x3d660eb4	0.056166366
247	0x3c2050a3	0.00978485
248	0xbb7e3612	-0.0038789553
249	0x3e11e9ce	0.14249346
250	0xbcc1a55d	-0.023638422
251	0xbd687a6c	-0.056757376
252	0xbd1c8039	-0.03820822
253	0xbc7732ab	-0.015087764
254	0xbd0bf6a0	-0.034170747
255	0x3a09b2c8	0.0005252776

actor.0.bias f4 [512]
0	0xbde7bf88	-0.113158286
1	0xbd9a3e4d	-0.07531414
2	0xbde52a69	-0.1118973
3	0x3d5be9d3	0.05368979
4	0xbdc3f0ba	-0.09567399
5	0xbdadd9ef	-0.08488833
6	0xbe3e07af	-0.18557619
7	0xbe16c20a	-0.14722458
8	0xbe092333	-0.13392334
9	0xbe3421a8	-0.17590964
10	0xbe17de9a	-0.1483101
11	0x3c846a9a	0.016164113
12	0x3dee2bec	0.11629471
13	0xbe189a06	-0.14902505
14	0xbdaff5ee	-0.08591829
15	0xbc4bd3bd	-0.012440619
16	0xbc1cca06	-0.0095696505
17	0x3c9dc2bb	0.019257894
18	0xbd8f5c17	-0.069999866
19	0xbda96ae4	-0.08272341
20	0xbe06a643	-0.13149361
21	0xbcd1345c	-0.025537662
22	0xbd7b6f7e	-0.061385624
23	0xbdd5bcf5	-0.10436431
24	0xbd921d17	-0.07134455
25	0x3ca8ceb3	0.020606374
26	0xbda05d89	-0.078303404
27	0x3d6fcd44	0.058545366
28	0xbc5aaea3	-0.013347301
29	0x3da35b23	0.07976367
30	0xbd85fafd	-0.06542013
31	0xbc9c45a6	-0.01907618
32	0x3ca5f2ee	0.02025744
33	0xbd3869f0	-0.045022905
34	0xbdc9eca4	-0.09859589
35	0xbcef307c	-0.029197924
36	0xbe0e5244	-0.1389857
37	0xbe05e447	-0.13075362
38	0x3e03cc7a	0.1287097
39	0xbd3ea5c8	-0.04654482
40	0x3c4badaf	0.012431546
41	0xbe4806a0	-0.19533777
42	0xbc835f96	-0.01603679
43	0xbc43b3b1	-0.011944697
44	0x3d179c83	0.037014496
45	0xbd8590aa	-0.06521733
46	0x3ce993c5	0.028512845
47	0x3d514b0d	0.051096965
48	0xbe081580	-0.13289452
49	0xbe481fef	-0.19543432
50	0xbd2e1b24	-0.042506352
51	0xbdaf20cd	-0.08551178
52	0xbe04b332	-0.12958983
53	0xbdd213e7	-0.10257702
54	0xbd16ed16	-0.036847197
55	0xbd5bdcce	-0.053677373
56	0x3abf7b77	0.0014608939
57	0xbc523e74	-0.012832273
58	0x3d500d3b	0.050793868
59	0xbdbf2e4d	-0.09335003
60	0xbd206fab	-0.039168995
61	0xbddbfd0a	-0.10741623
62	0xbd9c3476	-0.07627194
63	0xbd9220b0	-0.07135141
64	0xbe0a8885	-0.1352864
65	0xbe1b31f4	-0.15155774
66	0x3d7fda2f	0.062463935
67	0xbd9ff7b2	-0.07810916
68	0xbe2f1302	-0.17097095
69	0xbd85426e	-0.06506811
70	0xbdbbe7ce	-0.091750726
71	0x3b10a340	0.002206996
72	0xbdfddaff	-0.12395286
73	0xbd9f4109	-0.07776076
74	0x3de1ffd3	0.11035123
75	0xbdaf8845	-0.08570913
76	0xbbd7ce09	-0.0065858406
77	0xbca85827	-0.020549847
78	0xbda9e34e	-0.08295308
79	0xbd276e83	-0.040876877
80	0xbe130593	-0.14357595
81	0xbd7781ba	-0.06042645
82	0x3d1fad20	0.038983464
83	0xbdfb4759	-0.12269468
84	0xbdab10dd	-0.08352826
85	0x3dee7e50	0.11645186
86	0x3d2f487e	0.042793743
87	0xbd261318	-0.040545553
88	0xbd4b7d02	-0.049679764
89	0xbb252e3b	-0.0025204557
90	0x3cc7d71f	0.02439457
91	0xbe748a6f	-0.23880933
92	0xbde1bfb5	-0.11022893
93	0xbdd6e16b	-0.10492214
94	0xbe486aff	-0.19572066
95	0x3d0827a9	0.033240948
96	0xbe1eb81a	-0.15499917
97	0xbb401274	-0.0029307874
98	0xbe168c0a	-0.14701858
99	0xbd9a2383	-0.075263046
100	0xbce8e03e	-0.02842724
101	0xbc40f2e0	-0.011776656
102	0x3d50d024	0.05097975
103	0xbdbde50b	-0.09272202
104	0xbc5d9299	-0.013523721
105	0xbd539a64	-0.05166091
106	0x3d249124	0.04017748
107	0x3c8bf253	0.017083323
108	0xbd870c5f	-0.065941565
109	0xbe3dd7a0	-0.18539286
110	0xbdcfce7c	-0.10146806
111	0xbdec5442	-0.115395084
112	0xbdb487b3	-0.08814945
113	0xbb0877c3	-0.0020823337
114	0xbdd8c569	-0.10584528
115	0xbc131eca	-0.008979509
116	0x3c6a7bc5	0.0143117355
117	0xbd526d15	-0.05137356
118	0x3dc1c203	0.09460833
119	0xbe0f8caf	-0.1401851
120	0x3dd6430e	0.104620084
121	0x3d705bee	0.05868142
122	0xbe0c7ac9	-0.13718714
123	0xbc77a2fa	-0.01511454
124	0xb88db2b6	-6.7566914e-05
125	0xbd0a7c7f	-0.033810135
126	0xbe0ab3b8	-0.1354512
127	0x3c1f0c76	0.009707561
128	0xbd463081	-0.0483861
129	0xbb571f63	-0.0032825104
130	0xbd8ec216	-0.06970613
131	0xbda57542	-0.08079006
132	0x3d23802c	0.039917156
133	0x3e11b288	0.1422826
134	0x3c6aafd2	0.014324145
135	0xbdf053d4	-0.11734739
136	0xbd542c41	-0.051800016
137	0xbde83bc2	-0.11339523
138	0xbd1fb45c	-0.038990363
139	0xbd6a11d2	-0.0571459
140	0xbe2b4eca	-0.16729274
141	0xbd6d87e0	-0.05799091
142	0xbc00fc1b	-0.007872607
143	0x3c4a98e6	0.012365555
144	0xbcd1935c	-0.025582962
145	0xbe15dbf1	-0.14634682
146	0xbe439128	-0.19098341
147	0xbd8b9e0e	-0.06817256
148	0xbdc4445d	-0.09583352
149	0xbce0a9ef	-0.02742478
150	0x3ce3a85b	0.02779024
151	0xbdea0d2f	-0.11428296
152	0x3dc15e81	0.09441853
153	0xbd2ff44d	-0.042957593
154	0x3a8c975c	0.0010726261
155	0x3db862e8	0.0900324
156	0xbde7b75c	-0.1131427
157	0xbe49eb21	-0.19718601
158	0xbd902f3f	-0.070402615
159	0xbde94b18	-0.11391276
160	0xbe574c49	-0.21025194
161	0xbe2380ae	-0.15967056
162	0x3cdc5918	0.026897952
163	0xbabf0d3d	-0.0014576089
164	0x3d835bfd	0.0641403
165	0x3de9a9e9	0.11409361
166	0x3ca84cc7	0.020544423
167	0xbe11d9df	-0.14243267
168	0xbcb7c11c	-0.022430949
169	0x3ca0a3a9	0.01960929
170	0x3c6e3be3	0.014540645
171	0xbb52f2aa	-0.0032188096
172	0x3d18d55f	0.03731286
173	0x3cba6260	0.022751987
174	0xbcbd7853	-0.023128664
175	0x3de4e684	0.1117678
176	0xbcb5d0a3	-0.022194212
177	0x3c69dd0e	0.014273895
178	0x3d88c848	0.066788256
179	0xbce3ad50	-0.027792603
180	0x3d8046b5	0.06263486
181	0xbd5bee35	-0.05369397
182	0xbcc60403	-0.024171835
183	0xbd1e5196	-0.038652025
184	0x3cb7f69b	0.022456458
185	0x3d09b7ea	0.03362266
186	0x3d573134	0.052537158
187	0xbdf216a3	-0.11820724
188	0x3c65cec1	0.014026345
189	0xbe0b22e6	-0.13587531
190	0xbcb3dc23	-0.021955555
191	0xbc889c85	-0.016676197
192	0xbd11c429	-0.035587464
193	0xbd99c696	-0.075085804
194	0x3b5928d7	0.0033135915
195	0xbcb8cded	-0.02255913
196	0xbdf91ac3	-0.121633075
197	0xbcd2de94	-0.0257409
198	0x3d02c057	0.03192171
199	0xbdd904d4	-0.10596624
200	0x3dd67802	0.104721084
201	0xbda0a649	-0.078442164
202	0xbe131b81	-0.1436596
203	0xbcc3bcd3	-0.02389375
204	0xbe191197	-0.14948116
205	0xbd820ec1	-0.0635047
206	0xbc0d01e6	-0.00860641
207	0x3d998b72	0.074973
208	0xbd0ea45c	-0.034824714
209	0xbca5a0d1	-0.020218285
210	0x3e0c43b1	0.13697697
211	0xbcf56136	-0.02995358
212	0x3d63051a	0.055424787
213	0xbd183156	-0.037156425
214	0xbc8d9571	-0.017283173
215	0x3db46c1b	0.08809682
216	0xbe100a9a	-0.14066544
217	0x3cf8ca8f	0.030370025
218	0xbd54ff11	-0.052001063
219	0x3d2fed1d	0.04295074
220	0xbd45f35c	-0.04832779
221	0xbe9ac616	-0.30229253
222	0x3d72689d	0.0591818
223	0xbb752e0d	-0.0037411482
224	0xbd3e33dd	-0.04643618
225	0xbd3fc393	-0.046817373
226	0xbe525919	-0.205418
227	0xbcc99099	-0.024605082
228	0x3de82ac3	0.11336281
229	0xbd3e57d1	-0.046470467
230	0xbd49d990	-0.04927975
231	0xbd98d91a	-0.07463284
232	0xbca1e367	-0.019761754
233	0xbd96257f	-0.073313706
234	0x3e0c5ecf	0.13708042
235	0x3d21eb82	0.03953124
236	0x3d8182e9	0.06323797
237	0xbdbfcf85	-0.09365753
238	0x3cbecc0e	0.02329066
239	0x3b9e33ef	0.0048279683
240	0xbe189529	-0.1490065
241	0x3da32d26	0.07967596
242	0xbaf22429	-0.0018473911
243	0xbe2292b0	-0.1587627
244	0xbcd67814	-0.026180305
245	0xbd4f1ad1	-0.050562683
246	0x3d9371f2	0.07199468
247	0xbc8e2f0d	-0.01735642
248	0xbc6ae5f1	-0.014337049
249	0x3cad552d	0.021158779
250	0xbdc9ba27	-0.09849959
251	0xbd39b2c1	-0.04533649
252	0xbd0a9f35	-0.033843238
253	0x3db0b98d	0.08629141
254	0xbd83d7c5	-0.06437639
255	0x3db1e519	0.08686275

actor.2.weight f4 [256, 512]
0	0xbd7e7c6a	-0.06213037
1	0xbcf6f79c	-0.030147366
2	0xbd09b379	-0.033618424
3	0x3d8b707f	0.06808566
4	0xbdd37ad8	-0.10326165
5	0xbdc52946	-0.09627013
6	0xbcc8e468	-0.024522975
7	0xbbdcce87	-0.006738487
8	0x3e04af91	0.12957598
9	0xbc99afb5	-0.018760541
10	0x3df9294f	0.12166082
11	0xbbce88f5	-0.0063029476
12	0xbd680ef2	-0.056654878
13	0xbc6dec2d	-0.014521641
14	0x3c866e74	0.01641009
15	0xbe057dc4	-0.13036257
16	0x3b33f8d6	0.002746155
17	0xbc6ed064	-0.014576051
18	0xbe2ce977	-0.16885935
19	0xbb6e669d	-0.003637708
20	0xbdb4e7ea	-0.088332966
21	0x3c728eaf	0.014804526
22	0xbe7dd75e	-0.24789187
23	0x3d0e1224	0.03468527
24	0x3e019807	0.1265565
25	0x3de66b75	0.112509646
26	0xbdcefa7b	-0.10106369
27	0xbddcba2a	-0.107776955
28	0xbe49a02b	-0.19690005
29	0xbca2b2f4	-0.019860722
30	0x3d2f9c7c	0.042873845
31	0x3d1ca5b0	0.03824395
32	0xbe025742	-0.12728599
33	0x3d9c6a3e	0.076374516
34	0x3d8b7e3f	0.06811189
35	0x3e12c39b	0.1433243
36	0x3db2a29a	0.0872242
37	0x3d5d9f78	0.05410716
38	0xbd442ff5	-0.047897298
39	0xbd0d4673	-0.034491014
40	0x3d8b7138	0.06808704
41	0xbd518735	-0.051154334
42	0x3d3576a4	0.044302598
43	0x3c80142d	0.01563462
44	0x3ca9cd6d	0.020727837
45	0x3da2eb00	0.07954979
46	0xbe12b8fb	-0.14328377
47	0x3ccc0d4a	0.02490868
48	0x3dc98d98	0.0984146
49	0x3de48be9	0.11159498
50	0x3db91201	0.09036637
51	0x3bfc6b6b	0.007703235
52	0xbca41fe2	-0.020034734
53	0xbdf178b5	-0.11790601
54	0x3e1024c6	0.14076528
55	0xbdbf059b	-0.09327241
56	0x3b3ff772	0.0029291776
57	0x3d56ed53	0.052472424
58	0xbafb2fd8	-0.0019164039
59	0x3dcc3db7	0.09972709
60	0x3c90b08f	0.017662315
61	0x3de0e877	0.10981839
62	0x3cb985d4	0.022646822
63	0x3d96a793	0.07356181
64	0xbd97c74f	-0.07411062
65	0x3e32f3e8	0.17475855
66	0xbda5353f	-0.080667965
67	0x3e1e479f	0.15457009
68	0x3c2ed8d0	0.010671809
69	0xbc9853f3	-0.018594718
70	0x3bab762d	0.0052325935
71	0xbb1e5383	-0.0024158664
72	0x3d5c2eba	0.0537555
73	0xbceb7cca	-0.028746027
74	0xbd009a15	-0.031396944
75	0x3c78f90e	0.015196098
76	0x3cc9d313	0.02463678
77	0x3d32c90b	0.04364876
78	0xbcec5135	-0.028847316
79	0x3d1faa68	0.03898087
80	0x3da8e0ba	0.08245988
81	0x3d49aa90	0.049234927
82	0xbd7a6b80	-0.061137676
83	0xbd899136	-0.0671715
84	0xbc9f7fa0	-0.019470036
85	0xbd09cb22	-0.03364099
86	0xbb840d73	-0.0040299236
87	0xbd255700	-0.040366173
88	0x3e0304f8	0.12794864
89	0x3be2272a	0.0069016414
90	0x3d7d634c	0.061862275
91	0x3d8d7ba9	0.06908352
92	0x3b44eb8e	0.0030047628
93	0xbb5b3f5f	-0.003345452
94	0x3d7e3617	0.062063303
95	0xbb9b7423	-0.004744069
96	0xbc247b3c	-0.010039147
97	0xbc9350d6	-0.017982882
98	0x3c38d443	0.011281076
99	0x3de654f2	0.11246671
100	0xbd281190	-0.041032374
101	0x3d892b78	0.06697744
102	0x3d5d9031	0.05409259
103	0xbd5c3f42	-0.053771265
104	0xbd0662e2	-0.032809146
105	0xbd97930f	-0.07401096
106	0x3da9ebf3	0.08296957
107	0xbe00b513	-0.12569074
108	0xbd6d6cb5	-0.057965
109	0x3e224317	0.15845905
110	0x3da17d7a	0.07885261
111	0x3dca6684	0.098828346
112	0xbc3466f6	-0.011010876
113	0xbd8f9d3c	-0.07012412
114	0xbdb684f3	-0.08912077
115	0xbac8e131	-0.0015325901
116	0x395df248	0.00021166459
117	0xbcadd072	-0.021217559
118	0x3cc03877	0.023464425
119	0xbb42e336	-0.002973748
120	0xbd6275cc	-0.05528812
121	0x3d9eca48	0.07753426
122	0x3cb4cc25	0.02207
123	0x3e257c57	0.16160713
124	0xbd998a12	-0.07497038
125	0x3dd8ae38	0.105801046
126	0x3b419974	0.0029540928
127	0x3c426d11	0.011866824
128	0xbd3985cc	-0.045293614
129	0x3a5e903e	0.00084901217
130	0x3d095678	0.03352973
131	0x3cb52b86	0.02211548
132	0x3c5ca683	0.013467434
133	0xbdac147c	-0.084023446
134	0x3d3640b3	0.044495296
135	0x3cbb3957	0.02285449
136	0xbd73319d	-0.059373487
137	0xbcea9217	-0.028634114
138	0xbdd75c16	-0.10515611
139	0x3dd73193	0.105075024
140	0x3e15c55e	0.14626071
141	0xbe12863d	-0.1430902
142	0x3d81a1c9	0.06329686
143	0xbd70b6ae	-0.058767967
144	0xbd7a9792	-0.061179705
145	0xbd610f4c	-0.05494623
146	0xbd1fd4ab	-0.039021175
147	0x3d29563d	0.04134201
148	0xbd7dcabd	-0.061960924
149	0xbccea562	-0.025225345
150	0x3d590728	0.05298534
151	0xbbae6901	-0.005322576
152	0xbcc77894	-0.024349488
153	0xbd3ff274	-0.04686208
154	0x3d532c42	0.05155588
155	0xbc9de5c6	-0.019274604
156	0xbe2c3639	-0.1681756
157	0xbd35faae	-0.04442852
158	0xbd5561ea	-0.05209533
159	0xbcc548b4	-0.02408252
160	0x3d3e7e15	0.04650696
161	0xbca2168f	-0.019786147
162	0xbd5ccd79	-0.05390689
163	0x3d024c6f	0.031811174
164	0xbd065b1c	-0.032801732
165	0x3d25a001	0.040435795
166	0x3d8787c8	0.06617695
167	0xbdc65a2e	-0.09685169
168	0x3c912593	0.017718112
169	0x3ca0d511	0.019632848
170	0xbdbef74b	-0.09324511
171	0xbd910b06	-0.07082181
172	0x3de03123	0.10946872
173	0x3d4b431a	0.04962454
174	0xbdecb3c4	-0.11557725
175	0xbcea316f	-0.028588025
176	0x3d6b1995	0.057397444
177	0xbe36794b	-0.17819707
178	0xbda2886a	-0.07936175
179	0x3db130f4	0.08651915
180	0x3d85d7f3	0.0653533
181	0x3d8125b2	0.06306018
182	0xbcc301d0	-0.023804575
183	0xbd15d034	-0.03657551
184	0xbe691743	-0.2276278
185	0xbe37cef7	-0.17950045
186	0xbd398fc8	-0.045303136
187	0x3d970be2	0.07375313
188	0xbe290778	-0.16506755
189	0x3dc5774a	0.09641893
190	0xbd7bd724	-0.06148447
191	0xbd38177d	-0.044944275
192	0x3daae3d7	0.08344238
193	0xbd398078	-0.045288533
194	0x3df6beba	0.12048097
195	0xbdc5109a	-0.09622307
196	0xbd52c9bd	-0.051461924
197	0x3dae381c	0.08506796
198	0xbc972e7e	-0.018454786
199	0x3dd141c1	0.1021762
200	0x3b1384f4	0.0022509666
201	0x3ca37ff4	0.019958474
202	0x3ce9b9e2	0.028531019
203	0xbd8dadac	-0.06917891
204	0x3d7a720a	0.061143912
205	0x3a91ccb2	0.0011123626
206	0x3c37fd88	0.01122988
207	0x3b6a55ce	0.003575671
208	0xbcbb77d9	-0.022884296
209	0x3dd47918	0.10374659
210	0xbca3be7a	-0.019988287
211	0x3d4d0792	0.050056048
212	0xbd7024ea	-0.058628954
213	0x3d14f7b0	0.036369026
214	0xbd229fc8	-0.03970316
215	0x3cbd93b3	0.023141718
216	0x3e184e70	0.14873672
217	0xbda83e17	-0.08214968
218	0xbe394c49	-0.18095507
219	0x3c04fec9	0.008117386
220	0xbca3a05d	-0.019973928
221	0x3d9a651f	0.075388186
222	0x3d633050	0.055465996
223	0xbd5be690	-0.05368668
224	0xbd226949	-0.03965119
225	0xbd989ca7	-0.07451754
226	0xbc52114f	-0.0128215095
227	0xbcab8514	-0.02093748
228	0x3cd09135	0.025459865
229	0xbdb0197a	-0.08598609
230	0xbcf7617f	-0.030197857
231	0x3ceedf4d	0.029159212
232	0xbc5ec667	-0.0135971075
233	0xbdade340	-0.0849061
234	0xbd301053	-0.042984318
235	0x3da51f38	0.08062595
236	0xbd84f8b2	-0.06492747
237	0x3dcfc3fd	0.10144804
238	0x3d86eb15	0.06587807
239	0xbe4a975c	-0.19784302
240	0x3ca3300b	0.01992037
241	0x3c48e86c	0.012262445
242	0x3daef7ef	0.08543383
243	0x3e118cda	0.14213887
244	0x3caea673	0.021319604
245	0xbcc3a070	-0.023880213
246	0xbce86391	-0.02836779
247	0x3d047276	0.03233572
248	0xbd53ac9f	-0.051678296
249	0x3aceb117	0.001576933
250	0x3d4e14dc	0.05031286
251	0x3c611bec	0.013739567
252	0xbd478a95	-0.048716146
253	0xbe4bb791	-0.19894244
254	0x3d2a64a5	0.04159989
255	0xbe03c34d	-0.1286747

actor.2.bias f4 [256]
0	0xbc24234a	-0.010018179
1	0xbdd0d1d1	-0.10196269
2	0xbc84502d	-0.016151512
3	0x3c9a0179	0.01879953
4	0x3d2dec57	0.04246172
5	0xbbbae87a	-0.005703983
6	0xbd763754	-0.06011136
7	0xbc3221df	-0.010872333
8	0xbd1962a0	-0.03744757
9	0xbd115c77	-0.035488572
10	0xbd573a97	-0.05254611
11	0xbe1e45b9	-0.15456285
12	0x3cd4c680	0.025973558
13	0xbd2ee9fd	-0.042703617
14	0x3d794655	0.06085809
15	0xbe0e2c0d	-0.13883992
16	0xbdbf7526	-0.09348516
17	0xbd54f965	-0.051995654
18	0x3e0ddbfd	0.1385345
19	0xbdb1c168	-0.086794674
20	0xbdcdff21	-0.100584276
21	0x3cc70be5	0.024297664
22	0xbe402493	-0.18763952
23	0xbdb0afcd	-0.08627281
24	0xbe1f486f	-0.15554975
25	0x3afc655a	0.0019256279
26	0x3d2c5cf4	0.042080835
27	0xbdf98ef9	-0.12185473
28	0x3c6e2ce1	0.014537067
29	0x3d2eaf8c	0.042647883
30	0xbd3b9ef2	-0.04580588
31	0xbc0cfd07	-0.008605248
32	0xbc49bd76	-0.012313237
33	0xbd2eb2f9	-0.04265115
34	0xbd74b80f	-0.059745844
35	0xbd22d50d	-0.039753962
36	0xbda165b6	-0.07880728
37	0x3ca791ab	0.020455202
38	0x3ccd058e	0.025027063
39	0xbca40ab7	-0.02002464
40	0xbd9baae5	-0.07600955
41	0x3c1f6843	0.009729448
42	0x3d0ff3bb	0.03514455
43	0xbcd3e3d5	-0.025865475
44	0xbd3cac37	-0.046062674
45	0xbd27b737	-0.04094621
46	0xbc61a309	-0.013771781
47	0x3d9b6f48	0.075895846
48	0xbd828138	-0.06372303
49	0xbd495fdb	-0.04916368
50	0x3d63996c	0.055566236
51	0x3ce59f87	0.02803017
52	0xb903cad8	-0.00012568699
53	0xbdd8f99b	-0.105944835
54	0xbc67c4cc	-0.014146041
55	0x3d636992	0.0555206
56	0xbd193cac	-0.037411377
57	0xbcc9e6b4	-0.02464614
58	0xbde5e642	-0.11225559
59	0xbdee9c70	-0.11650932
60	0xbc6ee8cd	-0.014581871
61	0xbd3d0b7a	-0.046153523
62	0xbd2455f7	-0.040121045
63	0xbba8e202	-0.0051538954
64	0xbcf7fb09	-0.03027107
65	0xbe2e4fdf	-0.17022656
66	0xbdaf2308	-0.085516036
67	0xbe26ce70	-0.16289687
68	0xbd582d45	-0.052777547
69	0x3d48b5b9	0.04900143
70	0x3d15c8bc	0.03656839
71	0xbc05c0e6	-0.008163666
72	0xbe119309	-0.14216246
73	0xbc398fef	-0.01132582
74	0xbd920266	-0.07129364
75	0xbe382f03	-0.17986684
76	0xbd166b30	-0.036723316
77	0xbb71f755	-0.0036921103
78	0xbcb2805d	-0.021789724
79	0x3d25529b	0.04036198
80	0xbe047bc3	-0.12937836
81	0x3da7b7ac	0.081893295
82	0xbd5e1422	-0.05421842
83	0xbd680c01	-0.056652073
84	0xbdc01e94	-0.09380832
85	0xbe32af18	-0.17449605
86	0x3abb7ab9	0.0014303542
87	0xbd67ac3a	-0.056560732
88	0xbb1e403c	-0.0024147173
89	0xbe0bd030	-0.13653636
90	0xbd9d321b	-0.076755725
91	0x3c8c62a4	0.01713688
92	0x3da423c1	0.08014632
93	0x3b145643	0.0022634424
94	0x3cc40025	0.02392585
95	0x3cd489c2	0.025944594
96	0xbd0ecf90	-0.034865916
97	0xbe17e8f6	-0.14834961
98	0xbd9f74eb	-0.07785972
99	0xbc591c52	-0.013251381
100	0x3bf5827a	0.0074923607
101	0x3c8ebdb9	0.017424451
102	0x3d106972	0.03525681
103	0xbe289acf	-0.16465305
104	0x3951c7ac	0.00020006177
105	0xbe222233	-0.15833358
106	0xbe3be765	-0.18349989
107	0x3d1bfeca	0.038084783
108	0xbd4ec229	-0.050478134
109	0xbd8a99f9	-0.06767649
110	0xbca61742	-0.020274762
111	0xbe03c639	-0.12868585
112	0xbd0aa9d2	-0.03385336
113	0x3c4cc510	0.012498155
114	0xbd674cb8	-0.05646965
115	0xbd7249be	-0.059152357
116	0xbce91ef9	-0.028457152
117	0xbc8eb62f	-0.017420856
118	0x3cf87e4d	0.030333662
119	0xbde6b8eb	-0.11265739
120	0xbc61f778	-0.013791911
121	0xbdbad93d	-0.09123466
122	0x3d626109	0.05526832
123	0xbdb19d99	-0.086726375
124	0xbd3cde1d	-0.04611026
125	0xbd50acc8	-0.050946027
126	0xbdd33b62	-0.10314061
127	0x3d8cb9ea	0.06871398
128	0xbb86624c	-0.0041010734
129	0xbd84e270	-0.06488502
130	0x3c93da24	0.018048353
131	0x3c388826	0.011262929
132	0x3c925fb3	0.017867899
133	0x3c995304	0.018716343
134	0x3d8ce06a	0.06878741
135	0xbdc449d8	-0.09584397
136	0xbdf80e8c	-0.121121496
137	0x3cf36c14	0.029714622
138	0xbb056cca	-0.0020359033
139	0xbd42ff78	-0.047606915
140	0x3d498c1c	0.049205884
141	0xbccf3732	-0.025294874
142	0xbe4d4410	-0.20045495
143	0xbd164f9c	-0.036697015
144	0x3bd13765	0.0063847774
145	0x3c26ccf1	0.010180698
146	0xbce4b401	-0.027917864
147	0x3d0f7a86	0.035028957
148	0xbe0eac06	-0.13932809
149	0xbca6f97a	-0.020382632
150	0x3d0fc1a2	0.035096772
151	0x3ca0aaf4	0.019612767
152	0xbdd995ca	-0.10624273
153	0xbde28743	-0.110609554
154	0x3d8335ca	0.06406744
155	0xbcc38327	-0.02386625
156	0xbc5e5883	-0.0135709075
157	0xbe5d6062	-0.21618798
158	0x3d19790d	0.03746896
159	0xbdcdded3	-0.10052266
160	0xbd5d35f8	-0.054006547
161	0x3d2b6bdf	0.04185092
162	0xbc00fdfd	-0.0078730555
163	0x3d32b665	0.043630976
164	0x3d4042d1	0.04693872
165	0xbdde733d	-0.10861824
166	0xbc348d41	-0.011020006
167	0xbd12a023	-0.03579725
168	0xbe1888f6	-0.14895996
169	0xbcd1d343	-0.025613433
170	0xbd9f913d	-0.07791374
171	0xbd609de4	-0.054838076
172	0xbba94f78	-0.005166944
173	0x3dac1b38	0.08403629
174	0xbdc32ce2	-0.09530045
175	0x3d49828a	0.049196757
176	0x3d538296	0.05163821
177	0xbcb3c9d3	-0.021946823
178	0xbd56a18b	-0.052400153
179	0xbe4a535f	-0.19758366
180	0xbdd0ce51	-0.10195602
181	0xbd6932d4	-0.05693324
182	0xbe0c0a7c	-0.13675874
183	0xbd8c5586	-0.0685225
184	0xbd344d8f	-0.04401928
185	0xbbc36891	-0.005963393
186	0xbe05b85e	-0.13058612
187	0xbcc291bc	-0.023751132
188	0xbc8cce79	-0.017188298
189	0x392e4e1e	0.00016623034
190	0x3aed91fa	0.001812517
191	0xbe7ddf08	-0.24792111
192	0xbd9df34b	-0.0771242
193	0xbd54b9f6	-0.05193516
194	0xbda9e670	-0.082959056
195	0xbe207237	-0.1566857
196	0xbd9410f6	-0.072297975
197	0xbc077ae5	-0.008269046
198	0xbe05c43d	-0.1306314
199	0xbe0e0148	-0.13867676
200	0xbd34763c	-0.04405807
201	0xbe43e7e4	-0.19131428
202	0x3ca74732	0.02041969
203	0x3d0b052c	0.03394048
204	0xbd97ce29	-0.07412369
205	0x3d3a8e52	0.045545883
206	0xbd4c778c	-0.049918696
207	0xb9b830b2	-0.00035131496
208	0x3c62526d	0.013813597
209	0xbb9a3192	-0.0047056163
210	0xbdf54ee8	-0.11977941
211	0xbdd11de0	-0.10210776
212	0xbd78f06e	-0.060776167
213	0x3d666210	0.056245863
214	0xbdf3b6eb	-0.11900123
215	0x3d69e324	0.057101384
216	0x3b9ff273	0.004881197
217	0x3c74ee53	0.014949399
218	0x3d87450f	0.06604969
219	0x3c4846e4	0.012223933
220	0xbc073921	-0.008253367
221	0xbe294163	-0.1652885
222	0x3dceb872	0.10093774
223	0xbe4485dd	-0.1919169
224	0xbc9463d7	-0.018114014
225	0xbcda9584	-0.026682623
226	0xbd1d7f42	-0.03845144
227	0xbe07797b	-0.13229935
228	0xbe21883f	-0.1577463
229	0xbd031858	-0.032005638
230	0xbc3ffb03	-0.011717561
231	0x3d1b43a5	0.037906308
232	0x3d478ff3	0.048721265
233	0x3c013a10	0.007887378
234	0xbcca43d8	-0.024690554
235	0xbcb65eab	-0.022261938
236	0xbe2c8074	-0.16845876
237	0x3cfe98ab	0.031078657
238	0xbcc37e7e	-0.023864027
239	0xbd89a230	-0.06720388
240	0xbdc2c82a	-0.095108345
241	0x3d7174a7	0.05894914
242	0xbe7041f7	-0.23462664
243	0xbd9d9b7e	-0.076956734
244	0xbd133851	-0.03594238
245	0xbe018820	-0.12649584
246	0xbde66bef	-0.112510554
247	0xbde81d6b	-0.11333736
248	0x3d97a0e3	0.074037336
249	0xbd02ca82	-0.031931408
250	0xbdb7e69d	-0.08979533
251	0x3d914108	0.07092482
252	0xbe12be52	-0.14330414
253	0xbd56710d	-0.052353907
254	0xbe07f30a	-0.13276306
255	0x3c886f9d	0.016654784

actor.4.weight f4 [128, 256]
0	0xbde72252	-0.11285843
1	0xbd9bc41d	-0.07605765
2	0xbcb0e0ab	-0.021591505
3	0xbb9dd0c6	-0.0048161475
4	0xbc29ef78	-0.010372035
5	0xbe1422f6	-0.14466462
6	0x3c57ecc0	0.013179004
7	0x3de22092	0.110413685
8	0x3cb3c574	0.021944739
9	0x3c418ab0	0.011812851
10	0x3e29fe53	0.16600923
11	0x3d0f1e65	0.034941096
12	0xbdebaf39	-0.115080304
13	0xbc9e3e35	-0.019316772
14	0x3df11947	0.117723994
15	0xbd865524	-0.06559208
16	0xbd11c027	-0.03558364
17	0xbdf6e7d9	-0.1205594
18	0x3b423d89	0.0029638729
19	0xbdcfbbd8	-0.1014325
20	0x3d880f76	0.06643574
21	0x3d98d031	0.07461584
22	0x3e104d61	0.14092018
23	0x3d75ca0a	0.060007133
24	0x3dd7ff63	0.10546758
25	0xbc9fce7a	-0.019507635
26	0xbde5095c	-0.11183426
27	0x3d9b3101	0.07577706
28	0xbd0f83d7	-0.03503784
29	0xbe09243c	-0.13392729
30	0xbdc45545	-0.09586576
31	0xbde1e183	-0.11029341
32	0xbd4dac96	-0.05021342
33	0xbb9369d8	-0.0044987015
34	0x3e05d603	0.1306992
35	0x3d56dc6a	0.052456297
36	0xb7cf4a8c	-2.4711037e-05
37	0x3e14248f	0.14467071
38	0x3b897e11	0.0041959365
39	0xbdd89b43	-0.10576489
40	0x3d437b1f	0.04772484
41	0x3d8902d0	0.066899896
42	0x3b7a8571	0.003822651
43	0xbd0dc5ff	-0.034612652
44	0x3d8b3594	0.067973286
45	0x3d81c79c	0.063369006
46	0xbd29b234	-0.041429713
47	0xbdecb6c0	-0.11558294
48	0xbe124bcd	-0.14286728
49	0xbbe8f33d	-0.0071090744
50	0xbda2b538	-0.07944721
51	0xbdc0789a	-0.09398003
52	0x3d52a583	0.051427376
53	0xbd4fe8a8	-0.050758988
54	0x3ceb3563	0.02871198
55	0x3d6426d5	0.055701096
56	0xbe5c909d	-0.2153954
57	0xbc3368ef	-0.010950311
58	0x3ce0e5d9	0.02745335
59	0xbb8a6c32	-0.0042243237
60	0xbc1ac7a6	-0.009447014
61	0x3d222468	0.0395855
62	0xbbd2d996	-0.0064346297
63	0xbdf18544	-0.117929965
64	0x3b3cc338	0.0028802883
65	0x3dd2adc3	0.10287049
66	0x3d76ac32	0.060222812
67	0xbdde4b98	-0.10854262
68	0x3d8b1cb3	0.06792583
69	0x3ca392ef	0.019967524
70	0x3df1217c	0.11773965
71	0xbe168961	-0.14700843
72	0x3d9c503d	0.07632492
73	0xbd100ad6	-0.035166584
74	0xbd976f31	-0.07394255
75	0xbc96fa54	-0.018429913
76	0x3df2da31	0.11858023
77	0xbda2c7ec	-0.07948288
78	0xbc8c6d15	-0.017141858
79	0xbe272d10	-0.16325784
80	0xbd97dd0a	-0.07415207
81	0xbcc7afab	-0.024375757
82	0x3d058f88	0.032607585
83	0xbb40464b	-0.0029338773
84	0x3c440fde	0.011966674
85	0xbbfb07f5	-0.0076608607
86	0x3ce3d7ad	0.027812803
87	0xbbb8c19f	-0.005638316
88	0xbd0d2d00	-0.034466743
89	0xbcda2e73	-0.026633477
90	0xbd05546f	-0.032551225
91	0x3caee4d7	0.021349354
92	0x3bd7a653	0.0065811067
93	0xbd88f932	-0.06688155
94	0x3d269244	0.040666834
95	0xbda0e70c	-0.07856569
96	0x3d5bed13	0.05369289
97	0x3de10071	0.10986412
98	0x3d750eb2	0.059828468
99	0xbd7d3ba9	-0.061824474
100	0xbe094f7f	-0.13409232
101	0xbcc5f1a4	-0.024163075
102	0x3c09963c	0.008397635
103	0x3dbd3ddc	0.09240314
104	0x3d6e240a	0.05813984
105	0x3ce45969	0.027874665
106	0x3d0668a5	0.03281464
107	0xbc2fc0b1	-0.010727094
108	0xbbba82b8	-0.0056918524
109	0xbe13bb8a	-0.14427009
110	0xbdaed601	-0.08536912
111	0x3d8a0c9e	0.06740688
112	0x3cf265cc	0.029589556
113	0x3c7c343f	0.015393316
114	0x3d9fe93b	0.07808157
115	0xbd85004f	-0.064941995
116	0x3cc61ab4	0.024182655
117	0x3d924c06	0.071434066
118	0x3d8c4bbb	0.06850382
119	0x3d463498	0.04839
120	0xbd5fade7	-0.054609206
121	0x3d82be6c	0.06383976
122	0xbdf14339	-0.117804
123	0x3ddd9032	0.10818519
124	0xbde67c30	-0.11254156
125	0xbd1fe502	-0.03903676
126	0x3de5ce5c	0.112210006
127	0xbd09fdde	-0.033689372
128	0x3c0bd239	0.008534008
129	0xbd41046e	-0.047123365
130	0xbd95d2b0	-0.07315576
131	0xbd885f7e	-0.06658839
132	0xbe42b5ff	-0.19014739
133	0xbdc585ea	-0.09644683
134	0x3d3ca874	0.046059087
135	0xbce3481e	-0.02774435
136	0x3db770f9	0.08957095
137	0x3d0b2603	0.033971798
138	0xbda405f0	-0.08008945
139	0xbdb05d68	-0.08611566
140	0xbb191e09	-0.002336385
141	0x3de40f1f	0.111356966
142	0xbd716876	-0.058937512
143	0xbe3110a4	-0.17291504
144	0x3c2ea0d4	0.010658462
145	0xbc8909e3	-0.016728347
146	0xbe2f358e	-0.17110273
147	0x3d6298cf	0.05532151
148	0xbc2ac46d	-0.010422808
149	0xbd2f954f	-0.042867
150	0xbb99dd21	-0.00469555
151	0xbcc3e277	-0.023911698
152	0xbd789094	-0.060684755
153	0x3cf26883	0.02959085
154	0xbd85f0d8	-0.06540078
155	0xbdeae181	-0.11468793
156	0xbd5e7eb3	-0.05432005
157	0x3d19e6d6	0.037573658
158	0xbd5aa12c	-0.05337636
159	0x3dbdbd0f	0.09264576
160	0x3c738447	0.01486308
161	0x3cdb6993	0.02678374
162	0xbcad1a28	-0.021130636
163	0x39aa92cb	0.00032534296
164	0x3d01ea1f	0.031717416
165	0xbdd207ac	-0.102553695
166	0xbe0a1b73	-0.13487034
167	0xbdc128ac	-0.09431586
168	0x3e02b498	0.12764204
169	0xbcdb2448	-0.026750699
170	0xbd4defc8	-0.0502775
171	0x3e15288f	0.14566253
172	0x3db93971	0.09044159
173	0xbe40738f	-0.18794082
174	0xbe065caa	-0.13121286
175	0xbd1de9f7	-0.038553204
176	0xbd315deb	-0.043302458
177	0x3c796dd6	0.015223941
178	0xbda0efc0	-0.07858229
179	0xbd6f0f72	-0.05836434
180	0x3dcc56c5	0.099774875
181	0x3e0240a6	0.12719974
182	0x3d398a8c	0.045298144
183	0x3d6e1e68	0.058134466
184	0xbc27c808	-0.010240562
185	0xbd08c06c	-0.033386633
186	0x3d9e5357	0.077307396
187	0x3d740bfa	0.059581734
188	0xbdc49bf2	-0.09600057
189	0xbca479f4	-0.020077683
190	0xbc2c027a	-0.010498637
191	0x3c967ad3	0.018369114
192	0x3dc262b2	0.09491481
193	0xbc77fce8	-0.015135981
194	0x3c65a4f5	0.01401638
195	0x3d02ba4c	0.031915948
196	0x3da0ea46	0.07857184
197	0x3b3b1b3f	0.0028550175
198	0x3d46f64e	0.04857474
199	0xbd80e61f	-0.06293892
200	0xbd08705e	-0.033310287
201	0xbbac0025	-0.0052490407
202	0xbd54720d	-0.05186658
203	0xbcb2041b	-0.021730473
204	0x3dd6b549	0.10483796
205	0x3d1f0df2	0.03883166
206	0x3d127bb3	0.0357625
207	0x3d72b584	0.059255138
208	0x3ce47afd	0.027890677
209	0x3d2347f5	0.039863545
210	0x3e029288	0.1275121
211	0x3cd93aec	0.026517354
212	0x3cdf45be	0.027254935
213	0x3db1e693	0.08686557
214	0x3d84d70f	0.06486332
215	0xbe2fd6c5	-0.17171772
216	0xbb99f071	-0.0046978523
217	0xbd045f9e	-0.03231775
218	0xbd849b89	-0.064749785
219	0x3c217c6b	0.009856324
220	0xbb084a0f	-0.0020796095
221	0x3cba8aba	0.022771228
222	0x3d11c407	0.035587337
223	0x3e03c4af	0.12867998
224	0xbc39053e	-0.011292754
225	0xbc1777a8	-0.009244837
226	0xbe2295b8	-0.15877426
227	0x3d0baca4	0.03410019
228	0x3d008980	0.03138113
229	0xbd1915ad	-0.037374187
230	0x3d58a177	0.05288836
231	0x3e0210c0	0.12701702
232	0xbbca77e2	-0.006178842
233	0xbd4f0b72	-0.050548024
234	0x3d480a7e	0.04883813
235	0xbe000746	-0.12502775
236	0x3e076279	0.13221158
237	0x3c8a982f	0.01691827
238	0x3df37cb9	0.11889023
239	0xbc288416	-0.010285398
240	0xbd92db5d	-0.071707465
241	0xb9af1bf1	-0.0003339942
242	0x3daee6a6	0.085400864
243	0xbbb0e3d5	-0.0053982534
244	0xbdca1318	-0.09866923
245	0xbd748a3e	-0.05970215
246	0x3c639b7e	0.013892053
247	0x3c84c43b	0.016206851
248	0xbd9d8fce	-0.07693444
249	0xbd6cbf20	-0.05779946
250	0x3dae2a69	0.08504183
251	0xbde34c33	-0.11098518
252	0xbd7a4b78	-0.06110713
253	0x3c89e707	0.016833795
254	0x3e656ccd	0.22404785
255	0xbdd88f09	-0.10574157

actor.4.bias f4 [128]
0	0xbe0fe120	-0.14050722
1	0xbd203171	-0.03910965
2	0x3d097ecf	0.0335682
3	0x3e0a390b	0.13498323
4	0xbe0547bd	-0.13015647
5	0xbd3696f9	-0.044577572
6	0x3c97050d	0.018435026
7	0xbe02388a	-0.1271688
8	0x3d332d2f	0.043744262
9	0xbdb8ae57	-0.09017628
10	0xbcbbbe22	-0.02291781
11	0xbdaa071d	-0.08302138
12	0xbd2c18f5	-0.04201599
13	0x3d668400	0.05627823
14	0xbd9728dc	-0.0738084
15	0xbd3d24b6	-0.04617759
16	0x3bc7ecbe	0.00610122
17	0xbe67b836	-0.22628865
18	0x3d15cdc2	0.03657318
19	0x3d8d8487	0.06910043
20	0x3d1469ab	0.036233585
21	0xbb4629f6	-0.0030237413
22	0x3c9df154	0.019280113
23	0xbc683cb9	-0.014174634
24	0xbde0daa1	-0.109792
25	0x3dcedef1	0.101011164
26	0xbcd6714c	-0.026177071
27	0x3bc59ec4	0.006030889
28	0xbdcb4a35	-0.09926263
29	0xbcd337c5	-0.025783429
30	0x3d5a28ae	0.05326145
31	0xbc473b71	-0.012160168
32	0x3dcda487	0.10041147
33	0xbdc2d2aa	-0.09512837
34	0xbdf85568	-0.12125665
35	0xbd53ade4	-0.051679507
36	0xbd84b86d	-0.06480489
37	0xbe7023c2	-0.2345114
38	0xbc5d2c85	-0.013499384
39	0xbc4696b9	-0.012120896
40	0xbd2aceaa	-0.041700996
41	0xbda46237	-0.080265455
42	0x3cb6f024	0.022331305
43	0xbd6f0cb5	-0.058361728
44	0xbe36a4a8	-0.17836249
45	0xbcfcafef	-0.03084561
46	0xbe3e4dab	-0.18584315
47	0xbda3c81d	-0.07997153
48	0x3ca184b7	0.019716604
49	0x3bad6222	0.0052912394
50	0xbe29dfb8	-0.16589248
51	0xbd459ef9	-0.04824731
52	0x3cf559e9	0.029950099
53	0xbd358eb2	-0.044325538
54	0x3cc3972b	0.023875793
55	0x3d9b26a5	0.0757573
56	0x3d8b3fcc	0.06799278
57	0xbd4777e9	-0.04869834
58	0x3c1dbf79	0.00962817
59	0x3d8bf5d3	0.068339966
60	0xbe38ff5d	-0.18066163
61	0xbdb9c038	-0.09069866
62	0x3b5733ef	0.0032837351
63	0x3c77f9f2	0.015135275
64	0xbddc4d28	-0.10756904
65	0xbcabb5d9	-0.020960735
66	0xbd7fde68	-0.062467963
67	0xbd0a1f53	-0.03372128
68	0xbe6bf640	-0.23043156
69	0x3dbcfa8d	0.09227476
70	0xbcacaa91	-0.021077426
71	0xbcced098	-0.02524595
72	0xbe351b14	-0.1768611
73	0x3d8a4ab7	0.06752532
74	0xbd955660	-0.07291865
75	0x3d0a78fc	0.033806786
76	0x3d44359c	0.04790269
77	0x3bf40fda	0.0074481787
78	0x3d2c66b2	0.042090125
79	0xbd2b3f39	-0.04180834
80	0x3c864d30	0.016394228
81	0xbde85b0b	-0.1134549
82	0xbd6ef14f	-0.0583356
83	0xbe4982fe	-0.19678876
84	0x3d1e97af	0.038718875
85	0xbde81210	-0.1133157
86	0x3be532f4	0.0069945995
87	0xbd7cfd3a	-0.061764933
88	0xbe078fdc	-0.13238472
89	0xbce4cb56	-0.02792899
90	0xbd8f35ef	-0.06992709
91	0xbddfe514	-0.10932365
92	0xbc7ff64c	-0.015622687
93	0xbe3574b2	-0.17720297
94	0xbe20b7f0	-0.15695167
95	0xbc3adb7a	-0.011404866
96	0xbd8af8e4	-0.06785753
97	0xbcd38ea2	-0.025824849
98	0xbd916c74	-0.07100764
99	0x3d67173f	0.056418654
100	0x3c68313f	0.014171897
101	0x3ca7a52f	0.020464508
102	0x3c794ef0	0.015216574
103	0xbddbe126	-0.10736303
104	0xbd8a4d61	-0.0675304
105	0xbe113923	-0.14181952
106	0x3cd19e73	0.02558825
107	0x3ce0832e	0.027406301
108	0xbe292143	-0.16516595
109	0x3da5b9aa	0.08092053
110	0x3c8913b8	0.016733035
111	0xbdb4f1ac	-0.08835158
112	0xbe01ac70	-0.12663436
113	0x3d784b89	0.06061891
114	0x3d5e1122	0.054215558
115	0xbdf795f5	-0.12089149
116	0x3d136b76	0.035991155
117	0xbe36e17d	-0.17859454
118	0x3d16044f	0.036625203
119	0x3d930087	0.07177835
120	0x3c950fed	0.01819607
121	0x3c010a92	0.007876055
122	0x3d250e9f	0.040297147
123	0x3d2fcba5	0.04291882
124	0x3caefcc3	0.02136076
125	0x3cf67cb6	0.030088764
126	0x3d4640d0	0.048401654
127	0xbe6e5525	-0.23274668

actor.6.weight f4 [14, 128]
0	0x3d3a051c	0.04541503
1	0x3c5d016f	0.013489111
2	0xbd698213	-0.057008814
3	0xbbbf77e8	-0.0058431514
4	0xbc0158f0	-0.0078947395
5	0x3cbfead6	0.023427408
6	0x3cfacb0e	0.030614402
7	0x3c0b2b62	0.00849423
8	0xbc54780c	-0.0129680745
9	0x3ca48cd5	0.020086685
10	0x3cb9af0a	0.022666473
11	0x3c9f1773	0.019420361
12	0xbda54a07	-0.0807076
13	0x3d971034	0.073761374
14	0xbd0f488b	-0.03498129
15	0x3cad1246	0.021126878
16	0xbcdb3376	-0.026757937
17	0xbdab7e60	-0.083737135
18	0x3c1d4bc4	0.009600583
19	0xbc5e04b8	-0.01355093
20	0xbc29ef26	-0.010371959
21	0x3d632450	0.055454552
22	0x3cdbab12	0.026814971
23	0xbb23ad52	-0.0024975133
24	0xbd0eb8c9	-0.034844194
25	0x3d53439e	0.051578157
26	0x3d39c0f8	0.045350045
27	0xbcbcd758	-0.023051903
28	0xb91c118a	-0.00014883853
29	0xbca40ab4	-0.020024635
30	0x3d24552a	0.04012028
31	0x3daecafb	0.08534809
32	0x3cadc277	0.021210892
33	0xbd5670b2	-0.05235357
34	0xbc7ec21c	-0.015549209
35	0x3c86e9b6	0.016468864
36	0x3cddc3ae	0.027070846
37	0xbd4b3472	-0.049610563
38	0xbce15e07	-0.027510656
39	0x3cdda8fb	0.027058115
40	0xbcacd558	-0.021097824
41	0xbc0664f9	-0.008202785
42	0xbcb5b338	-0.022180185
43	0xbca25f2d	-0.019820774
44	0xbd0e3271	-0.034716073
45	0xbdbb4efe	-0.09145926
46	0xbb737f55	-0.0037154753
47	0xbd1ead4b	-0.038739484
48	0xbb82b68f	-0.003989048
49	0x3d9a1258	0.0752303
50	0xbd8720c5	-0.06598047
51	0xbbf7a06d	-0.007556966
52	0xbcf1b651	-0.02950588
53	0x3d9276e0	0.0715158
54	0x3c898242	0.016785745
55	0x3d82df49	0.063902445
56	0x3d25643b	0.04037879
57	0x3b18c681	0.0023311677
58	0xbd0333a7	-0.03203168
59	0x3a934d20	0.0011238195
60	0xbba7af7a	-0.005117354
61	0x396d4999	0.00022629499
62	0xbba9baf0	-0.0051797554
63	0xbd9247dd	-0.07142613
64	0xbcd13771	-0.025539132
65	0x3db49fa7	0.08819514
66	0x3d9b8555	0.075937904
67	0xbd21a8a6	-0.039467476
68	0xbb520a58	-0.0032049622
69	0xba8f7609	-0.0010945211
70	0x3daa7a21	0.083240755
71	0x3c0d8156	0.008636793
72	0xbc8871d2	-0.016655836
73	0xbd8f0d81	-0.069849975
74	0xbd821d52	-0.06353249
75	0xbb6b5e70	-0.0035914443
76	0xbdc62e13	-0.09676757
77	0xbcd495a0	-0.025950253
78	0xbd8c3dd4	-0.0684773
79	0x3cbecf33	0.02329216
80	0xbd0adb52	-0.033900566
81	0x3c1b3941	0.0094741
82	0x3cc72f5c	0.024314575
83	0xbcbf207e	-0.023330923
84	0x3d9b5f22	0.075865045
85	0xbd13baf1	-0.036066953
86	0x3d7122be	0.058871023
87	0xbd7dfea0	-0.062010407
88	0xbdc6bb50	-0.09703696
89	0xbbf98d52	-0.0076157236
90	0xbd20dcb5	-0.039272983
91	0x3d3342ec	0.043764994
92	0x3c496047	0.012291021
93	0x3cef02c2	0.02917612
94	0x3b073b22	0.002063461
95	0x3c2b5445	0.010457103
96	0x389f53d5	7.597326e-05
97	0x3ccb3d04	0.024809368
98	0x3b501337	0.0031749734
99	0xbe001856	-0.12509283
100	0xbcac47f4	-0.021030404
101	0x3959d6e6	0.00020774789
102	0xbc470b8d	-0.01214875
103	0x3d2c2918	0.042031378
104	0xbd99bc1a	-0.07506581
105	0xbd90c61e	-0.07069038
106	0x3c801b07	0.015637888
107	0xbdd27550	-0.10276282
108	0xbd82eb66	-0.06392555
109	0x3db6c529	0.08924324
110	0xbd29cedf	-0.041457053
111	0xbd2c4264	-0.042055503
112	0x3cde6860	0.02714938
113	0x3d5b439a	0.053531267
114	0xbde16ad8	-0.11006707
115	0x3a028af7	0.0004979814
116	0xbc9c38b2	-0.019070003
117	0xbc097446	-0.008389538
118	0xbcdbf910	-0.02685216
119	0x3d59d773	0.053183984
120	0x3c329aba	0.0109011475
121	0x3cd7aa94	0.026326455
122	0xbceb48e4	-0.02872128
123	0x3a890b10	0.0010455567
124	0xbb9de7b4	-0.004818881
125	0x3bb77ae7	0.005599368
126	0xbba475e5	-0.005018937
127	0xbd3e4e78	-0.046461552
128	0x3d44fb4a	0.04809121
129	0xbc3830b3	-0.01124208
130	0x3a534338	0.00080590276
131	0x3cd1adda	0.025595594
132	0xbcf71bae	-0.030164566
133	0xbd516e1a	-0.05113039
134	0xbd0c0677	-0.034185853
135	0x3d3881d7	0.0450457
136	0xbc1883cf	-0.009308769
137	0x3bfd70ff	0.0077344174
138	0xbbb08c17	-0.0053877938
139	0xbc15f660	-0.009152979
140	0xbb1083c0	-0.0022051185
141	0xbdad5970	-0.084643245
142	0x3ca76a44	0.020436414
143	0xbcc43981	-0.023953201
144	0x3dc80203	0.09766009
145	0x3c99d71f	0.018779336
146	0xba851a1e	-0.0010154878
147	0x3c85d17f	0.016335247
148	0x3ce5c3b3	0.028047418
149	0x39ed2ef8	0.00045239157
150	0xbbbc2cbf	-0.005742639
151	0xbd02fb58	-0.03197798
152	0x3d548a5f	0.051889773
153	0x3d04e01a	0.032440282
154	0xbcdd55a9	-0.027018385
155	0xbd2ff001	-0.042953495
156	0x39f692ec	0.00047030242
157	0x3d0ff68b	0.03514723
158	0xbd8aa30e	-0.067693815
159	0x3b860c4e	0.0040908223
160	0x3d6c7829	0.05773178
161	0xbc989b7e	-0.018628832
162	0x3cd810c9	0.026375191
163	0xbbbc288c	-0.0057421383
164	0x3ba6e965	0.0050937408
165	0xbdba88ae	-0.09108101
166	0xbd34d005	-0.044143695
167	0xbcc5ac7c	-0.024130099
168	0xbd3b41df	-0.045717116
169	0x3c70f560	0.014706939
170	0x3d0342b8	0.03204605
171	0x3ce9985c	0.028515033
172	0xbc883cce	-0.016630556
173	0x3cae8342	0.021302823
174	0xbd834784	-0.06410125
175	0xbd69a178	-0.057038754
176	0x3c4f2aba	0.012644464
177	0xbd387ec6	-0.045042776
178	0x3bf66a8c	0.0075200256
179	0x3c34dc76	0.01103889
180	0xbbe6457f	-0.0070273275
181	0xbc82afeb	-0.015953025
182	0x3cb67f12	0.022277389
183	0xbc975085	-0.018471012
184	0xbafdb227	-0.0019355462
185	0x3d68a08a	0.056793727
186	0xbc8a3775	-0.016872147
187	0x3d98d0a0	0.07461667
188	0xbc9ca96c	-0.019123755
189	0xbc1f83f5	-0.009736051
190	0xbbaad9bb	-0.005213944
191	0x3d73649f	0.05942213
192	0xbd05ef78	-0.03269908
193	0xbc858be6	-0.01630206
194	0xb9f90085	-0.00047493368
195	0xbd346ea2	-0.04405082
196	0xbbb42a54	-0.00549821
197	0x3c0f3326	0.008740222
198	0x3cacf989	0.021115081
199	0xbd205a4b	-0.03914861
200	0xbd11f64b	-0.035635274
201	0xbc4685f2	-0.012116896
202	0xbc84adca	-0.01619615
203	0xbaf05142	-0.0018334764
204	0x3cdd0a51	0.026982458
205	0xbc9905b8	-0.018679485
206	0xbbdf27c1	-0.006810159
207	0x3ad445e9	0.0016195151
208	0x3d6c0d7f	0.05763006
209	0xbc40e7fb	-0.011774058
210	0x3d23c254	0.039980248
211	0x3ab0dbe0	0.0013493262
212	0x3c84f46f	0.016229836
213	0xbd661105	-0.056168575
214	0x3b6bc0b3	0.0035973012
215	0xbc43a981	-0.011942268
216	0xbd17c01b	-0.03704844
217	0x3c482605	0.012216096
218	0xbcc4cef0	-0.024024457
219	0xbce16033	-0.027511692
220	0x3c11c2cb	0.00889654
221	0xbccb1f80	-0.024795294
222	0x3b879a09	0.0041382355
223	0x3b8c9e40	0.004291326
224	0x3cd153d1	0.025552662
225	0xbd21f24e	-0.03953772
226	0x3b9daccf	0.00481186
227	0x3a740219	0.0009308174
228	0xbd2094ca	-0.039204396
229	0x3d5e0434	0.054203227
230	0x3cac2bdb	0.021017006
231	0xbc7fe017	-0.015617392
232	0xbd190f50	-0.03736812
233	0xbcabf30a	-0.020989913
234	0x3c8118e3	0.015758937
235	0xbd5f5b43	-0.054530393
236	0xbd008c66	-0.031383894
237	0x3bc09fb0	0.0058784112
238	0xbcb09f0a	-0.02156021
239	0xbd088e46	-0.033338808
240	0xbc99f8df	-0.018795429
241	0x3da5d28e	0.08096801
242	0x3c4b7edc	0.012420382
243	0xbd3afa38	-0.045648783
244	0x3d88f842	0.066879764
245	0x3be85285	0.007089915
246	0x3c2880db	0.010284628
247	0xbd482bc3	-0.04886986
248	0xbcd3f040	-0.025871396
249	0x3c8c2bea	0.017110784
250	0xbc60f29c	-0.013729718
251	0xbd6bef1a	-0.057601072
252	0x3d620c46	0.055187486
253	0x3c776694	0.01510014
254	0x3d158049	0.036499295
255	0x3af0e64f	0.0018379184

actor.6.bias f4 [14]
0	0x3dda1ed0	0.10650408
1	0x3dcb2fee	0.09921251
2	0xbd640eb7	-0.055678096
3	0xbd481a12	-0.048852988
4	0x3d83a591	0.06428064
5	0x3cf8113d	0.030281657
6	0xbc66663f	-0.014062463
7	0xbcfcc224	-0.030854292
8	0xbdf3f9e0	-0.11912894
9	0xbd6d1566	-0.057881735
10	0xbd9f63b2	-0.07782687
11	0xbd4e7bf3	-0.050411176
12	0x3c57841c	0.013154056
13	0x3d03f8a4	0.032219544

normalizer._mean f4 [1, 74]
0	0xbe31a42d	-0.17347784
1	0xbf125ac8	-0.5716977
2	0xbe661b43	-0.22471337
3	0xbe32e34d	-0.17469521
4	0x3d997672	0.07493295
5	0xbf06410e	-0.52443016
6	0x3ab6281a	0.0013897449
7	0x00000000	0.0
8	0x3a2dd176	0.00066306384
9	0x3e507535	0.20357211
10	0x3e802a17	0.25032112
11	0x3a71adee	0.0009219338
12	0x3dcc93fe	0.09989165
13	0x3aa851b9	0.0012841738
14	0x3adda17b	0.0016909087
15	0xb99e384c	-0.00030178053
16	0xb98dd7fb	-0.00027054534
17	0x3ad62147	0.0016336822
18	0x3a950374	0.0011368827
19	0x3f33dc6c	0.7025821
20	0x3e58ee1c	0.21184582
21	0xbb9bbfe2	-0.004753099
22	0xbcc92214	-0.024552383
23	0xbecce930	-0.40021658
24	0x3bc06f38	0.0058726333
25	0x3d865fcf	0.06561243
26	0x3e42b257	0.19013344
27	0x3e612979	0.21988477
28	0xbe82ec7a	-0.25571042
29	0x3e701ded	0.23448916
30	0x3d91ad35	0.07113115
31	0x3de80008	0.11328131
32	0x3e42a8bc	0.1900968
33	0xbcefaf40	-0.02925837
34	0xbb71d7c5	-0.003690229
35	0xbe35d4bc	-0.17756933
36	0x3d7d41e6	0.061830424
37	0x3c6087aa	0.01370422
38	0x3dfb665f	0.12275385
39	0xbc7119d8	-0.014715634
40	0xbd115ed4	-0.035490826
41	0x3d24617d	0.040132035
42	0x3fb603e2	1.4219935
43	0x3f5f69ea	0.8727099
44	0x3d39e409	0.045383487
45	0x3d8ab3ec	0.067725986
46	0xbf05418b	-0.52053136
47	0x3fe026d7	1.7511853
48	0xc012cf83	-2.2939155
49	0x3f921e03	1.1415409
50	0x40b769c9	5.731663
51	0xc05fe7b0	-3.498516
52	0x3ef9909a	0.48743135
53	0xc112ac4e	-9.167067
54	0x41174e66	9.45664
55	0x3d8a6912	0.06758322
56	0x3cf08ec0	0.029364944
57	0xbdedb2d0	-0.116063714
58	0x3d5dcfad	0.054153133
59	0x3c4e2e60	0.012584299
60	0x3f3f191c	0.7464769
61	0x3e1a774e	0.15084574
62	0xbea66fde	-0.32507223
63	0xbfaefa20	-1.3670082
64	0x3f19d689	0.6009298
65	0xbdbcd5de	-0.092204794
66	0x3f6486ba	0.89268076
67	0xbd8e457c	-0.06946847
68	0xbd236065	-0.03988685
69	0x3f86d7d4	1.0534616
70	0x3ebafa05	0.36518875
71	0x3efe210f	0.49634597
72	0x3efd29e6	0.49446028
73	0x3e613e6e	0.21996471

onnx::Div_25 f4 [1, 74]
0	0x3f9ea729	1.2394763
1	0x3ffa013c	1.9531627
2	0x3fa7d2e1	1.311123
3	0x3f0745ae	0.528407
4	0x3ee63e5b	0.44969448
5	0x3efa45b0	0.48881292
6	0x3f068b1c	0.52556014
7	0x3c23d70a	0.01
8	0x3f066eae	0.52512634
9	0x3ed34778	0.41265464
10	0x3e1e18d3	0.15439157
11	0x3e99128e	0.2989697
12	0x3e76d327	0.24103986
13	0x3f028c8e	0.5099572
14	0x3f1f6bff	0.62274164
15	0x3f1f3da8	0.62203455
16	0x3f0296e5	0.51011497
17	0x3f1f36aa	0.62192786
18	0x3f1f6a98	0.62272024
19	0x3e00da4c	0.12583274
20	0x3ea95b81	0.33077624
21	0x3e38c9f5	0.1804579
22	0x3e3ae0f5	0.18249877
23	0x3edd13df	0.43179223
24	0x3ea9f3ad	0.33193722
25	0x3e8ce55e	0.27518743
26	0x3e638dbe	0.22222039
27	0x3ebd10d0	0.3692689
28	0x3eb73fec	0.35790956
29	0x3ed6dae9	0.4196389
30	0x3e7bf41e	0.24604842
31	0x3e5b9a51	0.21445586
32	0x400e22d8	2.2208767
33	0x3fd622c6	1.6729362
34	0x3fd8f62c	1.6950126
35	0x401694ff	2.352844
36	0x401359d6	2.3023582
37	0x400fddf7	2.2479227
38	0x3fe6cdd1	1.803156
39	0x40364315	2.8478444
40	0x40345fdd	2.818351
41	0x402c79e2	2.6949391
42	0x406ff55d	3.7493508
43	0x406c62c2	3.6935277
44	0x402526b4	2.5804873
45	0x4027534a	2.6144586
46	0x40eeab52	7.458413
47	0x4188cba7	17.09944
48	0x418de547	17.736952
49	0x41064c9f	8.393706
50	0x418f711b	17.930227
51	0x418f6a9f	17.927061
52	0x40f7ee77	7.7478595
53	0x41b87cef	23.061003
54	0x41becf0a	23.851093
55	0x3fad0f20	1.3520241
56	0x40319692	2.774815
57	0x402a002d	2.6562607
58	0x3fc7c4b4	1.5606904
59	0x3f7eb763	0.99498576
60	0x3ff4e497	1.913226
61	0x3fd58c5b	1.6683458
62	0x3fda6b3d	1.7063977
63	0x401a9904	2.4155893
64	0x3ff078ce	1.8786867
65	0x3fe4393e	1.7829969
66	0x3ff92219	1.9463531
67	0x3ff0a6ef	1.8800944
68	0x3ffbaf4a	1.9662869
69	0x402dd184	2.7159128
70	0x3ffbf643	1.9684528
71	0x3fed4165	1.8535582
72	0x3ff91632	1.9459898
73	0x3ff38700	1.9025574
