src/robot_controllers/config/pointfoot/SF_TRON1A/policy/policy.onnx (onnx, 965381 bytes, 10 tensors)

actor.0.weight f4 [512, 145]
0	0xbe547944	-0.20749384
1	0x3e42f582	0.19038966
2	0x3d852af7	0.065023355
3	0xbe27c704	-0.16384512
4	0xbea0b3f5	-0.31387296
5	0xbd1b30ed	-0.037888456
6	0x3d8d6fed	0.06906114
7	0xbebfc688	-0.37456155
8	0xbd8a5718	-0.06754893
9	0xbde556f6	-0.11198227
10	0xbca24e0a	-0.019812603
11	0xbd819e8a	-0.06329067
12	0x3db0f779	0.08640952
13	0x3d38d11d	0.0451213
14	0xbcea2a9e	-0.028584775
15	0xbcedcd59	-0.029028581
16	0x3c1ff4d3	0.0097629605
17	0x3cfdc96a	0.03097983
18	0xbebdec3f	-0.37094304
19	0x3e02455f	0.12721775
20	0x3e186beb	0.14884917
21	0xbddfe656	-0.10932605
22	0xbe15145c	-0.14558548
23	0x3ecb74a8	0.3973744
24	0x3d073eea	0.033018984
25	0x3e62ca33	0.22147445
26	0x3e88ac7b	0.26694092
27	0x3ab90102	0.001411468
28	0x3db63343	0.08896496
29	0xbdca8eb6	-0.09890501
30	0x3d873bc0	0.06603193
31	0xbe13ce6b	-0.14434211
32	0x3c9b3c18	0.018949553
33	0x3d804406	0.062629744
34	0xbdf2c8b0	-0.11854684
35	0x3afcddff	0.0019292234
36	0x3d8f1280	0.069859505
37	0x3d72589b	0.059166532
38	0xbde46510	-0.11152089
39	0xbd9df834	-0.077133566
40	0xbddd0d77	-0.10793584
41	0xbd84b325	-0.064794816
42	0xbc98c23c	-0.018647306
43	0x3b9d60cd	0.0048027993
44	0xbda18346	-0.078863665
45	0x3e56a967	0.2096306
46	0xbe00d8c1	-0.12582685
47	0x3e825f25	0.25463215
48	0xbebd9207	-0.37025473
49	0xbaca457d	-0.0015432086
50	0xbe211a75	-0.15732749
51	0x3c1b7503	0.009488347
52	0xbd5a8200	-0.053346634
53	0xbea1e844	-0.31622517
54	0xbd81d6c2	-0.0633979
55	0xbe16f5be	-0.1474218
56	0xbd564aac	-0.052317306
57	0xbda3acfe	-0.0799198
58	0x3dd5631d	0.10419295
59	0x3df9c4d3	0.12195744
60	0x3d5ef740	0.054435015
61	0x3e3c0b70	0.18363738
62	0xbe629dfa	-0.22130576
63	0xbdb2a07a	-0.08722015
64	0x3def5937	0.11686938
65	0x3dd88d0f	0.1057378
66	0xbe636a4b	-0.22208516
67	0xbe94fc89	-0.2909892
68	0x3d6a37d5	0.05718215
69	0x3dd2bc21	0.10289789
70	0x3d41565c	0.0472015
71	0x3d6dec94	0.058086947
72	0x3ca106b7	0.019656522
73	0x3d1b5a5f	0.03792798
74	0x3cf9de12	0.0305014
75	0x3e5c70c4	0.21527392
76	0xbd614ea6	-0.055006646
77	0xbe951075	-0.29114118
78	0x3ccae05b	0.024765184
79	0xbe30fd6f	-0.17284177
80	0x3da1d1cc	0.07901344
81	0x3cd0a20c	0.025467895
82	0xbcf5f288	-0.030022874
83	0x3c7de018	0.015495323
84	0x3d180b26	0.037120007
85	0x3d85f16f	0.065401904
86	0x3d99d4d6	0.07511298
87	0xbccec6a9	-0.025241213
88	0x3d74da92	0.059778757
89	0xbd01fa7b	-0.031733017
90	0xbe27155f	-0.16316746
91	0x3ca634a4	0.020288773
92	0x3d825f86	0.06365876
93	0xbc38fe23	-0.01129106
94	0x3cf2d4e0	0.029642522
95	0xbce62dba	-0.028097976
96	0x3ce4e413	0.027940786
97	0xbddeeea9	-0.108853646
98	0x3d32d349	0.04365853
99	0x3dbff345	0.09372572
100	0xbd46a550	-0.048497498
101	0xbcb69946	-0.022289883
102	0x3e0582f6	0.13038239
103	0xbcb2e850	-0.02183929
104	0x3cd2d20e	0.025734928
105	0xbc2f048e	-0.010682238
106	0xbd23bc2e	-0.039974384
107	0xbcc02ee9	-0.023459869
108	0xbc9d1b3e	-0.01917803
109	0xbde44f66	-0.111479566
110	0x3d7b9e51	0.06143028
111	0xbd51ac29	-0.051189575
112	0xbc9276f4	-0.017878987
113	0xbac3bd83	-0.0014933798
114	0x3d05d435	0.03267308
115	0xbe0e4010	-0.13891625
116	0xbc1916fa	-0.009343857
117	0x3d8f24c6	0.06989436
118	0xbb81c3c4	-0.0039601047
119	0xbd363b75	-0.044490296
120	0x3d739031	0.059463684
121	0xbd00e11d	-0.031464685
122	0xbc2b8435	-0.010468532
123	0xbd036db2	-0.032087035
124	0xbdfbe7aa	-0.12300046
125	0xbd8d1146	-0.0688806
126	0xbda2ef5b	-0.0795581
127	0x3e1591b3	0.14606361
128	0x3d183245	0.037157316
129	0xbae3fd0d	-0.0017394141
130	0x3de74160	0.11291766
131	0xbd9eca08	-0.07753378
132	0xbd596f6b	-0.053084772
133	0x3cb7d5f7	0.022440894
134	0x3e23f096	0.16009745
135	0xbc47428e	-0.012161864
136	0xbdad1170	-0.084505916
137	0x3e2c020e	0.16797659
138	0x3d59d186	0.053178333
139	0xbd8c96ff	-0.06864738
140	0x3d5dd6f3	0.05416007
141	0xbe1d00a4	-0.15332276
142	0x3d8e378e	0.0694419
143	0xbc36c93c	-0.011156376
144	0xbd89dce1	-0.067315824
145	0x3ed6479c	0.4185151
146	0x3dad1c8d	0.08452711
147	0x3e08044f	0.13282894
148	0xbc04a48c	-0.008095872
149	0xbe273656	-0.16329321
150	0xbd0b65ee	-0.034032755
151	0xbe02611a	-0.12732354
152	0xbd8cca60	-0.068745375
153	0xbd9dbcef	-0.07702052
154	0x3d8835dd	0.066508986
155	0x3e52325e	0.20527026
156	0x3e6d5da7	0.23180257
157	0xbd856231	-0.06512869
158	0x3d3c6463	0.045994174
159	0x3dfdee81	0.12399007
160	0x3d3ee2b6	0.046602927
161	0xbd5097d0	-0.05092603
162	0xbd204281	-0.039125923
163	0x3e156acd	0.14591523
164	0xbcc2eae8	-0.023793653
165	0xbe8a4a3b	-0.27009758
166	0x3ddaa1ad	0.106753685
167	0x3d9427e4	0.07234171
168	0xbdb83ff9	-0.08996577
169	0xbdcfb999	-0.10142822
170	0xbe644f88	-0.22295964
171	0xbe11915c	-0.14215606
172	0x3e402a2d	0.18766089
173	0x3e293ec9	0.16527857
174	0xbd9e5ee8	-0.07732946
175	0x3d1819dc	0.037134036
176	0x3decd92a	0.11564858
177	0x3d0e99c3	0.034814607
178	0xbd837682	-0.06419088
179	0x3d560279	0.05224845
180	0xbcfdf6cf	-0.031001477
181	0x3d906811	0.07051099
182	0xbd98158c	-0.07425985
183	0xbd82227c	-0.063542336
184	0x3e02242e	0.12709114
185	0x3e2358d6	0.15951857
186	0xbcc42d33	-0.023947334
187	0x3eb391de	0.35072225
188	0xbe038c5b	-0.1284651
189	0xbd86a3c6	-0.06574206
190	0xbdfc2fe4	-0.12313822
191	0xbcb4abe2	-0.022054616
192	0xbd12ee96	-0.035872065
193	0x3dc1fdee	0.09472261
194	0xbb86021a	-0.004089606
195	0xbdc7ba61	-0.09752346
196	0xbdb2b69b	-0.087262355
197	0x3dcfddb3	0.10149708
198	0x3d18cd1c	0.037304983
199	0x3e82c269	0.25538948
200	0xbd4a5c53	-0.049404453
201	0xbe0b7c9c	-0.13621753
202	0x3e058049	0.13037218
203	0x3d8d0fdd	0.06887791
204	0xbc07bc2e	-0.008284612
205	0x3e094636	0.1340569
206	0xbcad60ee	-0.021164384
207	0x3d4aeeed	0.049544264
208	0x3e40df8d	0.18835278
209	0x3def2591	0.11677087
210	0x3b078794	0.0020680176
211	0xbde9cc8b	-0.114159666
212	0xbdd8921f	-0.105747454
213	0x3e9bf7c6	0.30462474
214	0x3e0e6394	0.13905174
215	0x3e1597d6	0.14608702
216	0x3d044821	0.03229535
217	0xbc444544	-0.011979405
218	0xbd2d7665	-0.042349238
219	0x3c539d06	0.012915855
220	0x3ebe3100	0.3714676
221	0xbc8ee66d	-0.01744386
222	0x3c22d9fb	0.009939666
223	0xbcfec39c	-0.031099133
224	0xbde1697c	-0.11006448
225	0xbd38cec8	-0.045119077
226	0xbcd68489	-0.026186245
227	0xbaf3ad46	-0.0018591068
228	0x3af52b3f	0.0018704905
229	0x3d2700cc	0.040772244
230	0xbd561fce	-0.052276425
231	0x3d45eebd	0.04832338
232	0xbdb10fbc	-0.08645579
233	0x3d6e6182	0.05819846
234	0x3c159cd7	0.009131632
235	0xbd2c4668	-0.042059332
236	0x3d0129d3	0.031534027
237	0xbd07aeb5	-0.033125598
238	0xbd0453e7	-0.032306578
239	0x3d7bfa3a	0.06151793
240	0x3c6645c0	0.014054716
241	0xbd33195a	-0.04372535
242	0x3d90f02c	0.07077059
243	0x3d2fb846	0.042900346
244	0x3d31d98c	0.04342036
245	0xbd8d01fd	-0.06885145
246	0x3dd1f8b2	0.10252513
247	0x3cb680fe	0.022278305
248	0x3ad3c522	0.0016156773
249	0x3dbd72e2	0.09250428
250	0xbd38a0e8	-0.045075327
251	0xbd90aa4f	-0.07063734
252	0xbd1dd934	-0.03853722
253	0x3b82417b	0.003975091
254	0xbe01fc6a	-0.12693945
255	0x3d75aaba	0.05997727

actor.0.bias f4 [512]
0	0xbd94db8e	-0.07268439
1	0x3c8c47bf	0.017124055
2	0xbd89a35e	-0.06720613
3	0xbc2204d9	-0.009888851
4	0xbe26875a	-0.1626257
5	0xbdeb313b	-0.11483999
6	0xbec14f35	-0.37755743
7	0x3d23cb16	0.0399886
8	0xbcbe424a	-0.023224968
9	0x3d6e1c57	0.058132496
10	0xbd32bf8c	-0.043639705
11	0x3db5b19c	0.08871767
12	0x3d967593	0.07346644
13	0xbd9313ed	-0.07181535
14	0xbe0046a5	-0.12526949
15	0x3c0b584c	0.008504938
16	0x3d9863dc	0.07440922
17	0x3e032faf	0.12811159
18	0xbdb37752	-0.08762993
19	0xbd52257d	-0.051305283
20	0x3d2f80ca	0.042847432
21	0xbc599cf0	-0.013282046
22	0xbdc53577	-0.09629338
23	0x3d0113f4	0.03151317
24	0x3d0d1e7e	0.034452908
25	0xbd6d85a0	-0.057988763
26	0xbde67d22	-0.11254336
27	0xbdd14957	-0.102190666
28	0x3b929cf5	0.004474277
29	0x3d8676ff	0.065656655
30	0xbcda720c	-0.02666571
31	0x3d3e0021	0.04638684
32	0x3d90c31e	0.07068466
33	0x3cd39011	0.025825532
34	0xbd66f099	-0.056381796
35	0x3cbcc30c	0.023042224
36	0xbc8598a5	-0.016308138
37	0x3d26bd16	0.04070767
38	0xbc9b418d	-0.018952155
39	0xbe03b9c6	-0.12863836
40	0x3db2778e	0.087142095
41	0xbd0c3860	-0.03423345
42	0x3d3c9122	0.046036847
43	0xbd9d1546	-0.07670073
44	0xbd5f0fb9	-0.054458354
45	0xbdaca699	-0.084302135
46	0xbd80ad91	-0.06283105
47	0x3de29d1a	0.11065121
48	0xbb237c7c	-0.0024946025
49	0xbe91979c	-0.2843598
50	0xbdcaa3c7	-0.09894519
51	0xbe48c706	-0.19607171
52	0x3cc3c229	0.023896294
53	0x3d941341	0.07230235
54	0xbd83b710	-0.06431401
55	0xbb759a5c	-0.0037476039
56	0xbdb4786e	-0.08812033
57	0xbd452e14	-0.048139647
58	0xbdbe6b90	-0.0929786
59	0x3bfe928a	0.0077689337
60	0xbe0a1dc1	-0.13487913
61	0xbdcd540c	-0.10025796
62	0x3b2420ae	0.0025043893
63	0x3e056218	0.13025701
64	0xbe422b41	-0.18961813
65	0xbca9fffd	-0.020751948
66	0xbd2f15d6	-0.042745434
67	0xbdb7fc40	-0.0898366
68	0x3d6d60e4	0.05795373
69	0xbdb9437b	-0.09046074
70	0xbcdb18a0	-0.02674514
71	0xbed97cb2	-0.42477947
72	0xbde1f975	-0.11033908
73	0xbdf8d3ca	-0.121497706
74	0x3d3e98e0	0.04653251
75	0xbdc28121	-0.09497286
76	0x3ca5dd0a	0.020247001
77	0xbda7fe63	-0.08202817
78	0xbd73b7f6	-0.05950161
79	0xbe150960	-0.14554358
80	0xbdf372f2	-0.118871585
81	0xbd51141b	-0.051044565
82	0xbdedf3a8	-0.11618739
83	0x3dc41a14	0.095752865
84	0xbdb00aa3	-0.08595779
85	0xbd829176	-0.06375401
86	0xbdb6faa7	-0.08934527
87	0xbdeac165	-0.11462668
88	0xbdf0df60	-0.117613554
89	0xbdcc2595	-0.09968106
90	0x3db8593a	0.090013936
91	0xbe133ce2	-0.14378694
92	0xbe827b39	-0.25484636
93	0xbd9899b8	-0.074511945
94	0xbe0601cf	-0.13086627
95	0xbd36fad4	-0.044672802
96	0x3d2f2320	0.042758107
97	0xbe1edbc8	-0.15513527
98	0xbd27e422	-0.04098905
99	0xbe0c99ca	-0.13730541
100	0xbdd589e5	-0.10426692
101	0xbe172665	-0.1476074
102	0xbdf466e7	-0.119336896
103	0xbd11094d	-0.03540926
104	0xbdc40070	-0.09570396
105	0xbcf79608	-0.030222908
106	0xbd753f40	-0.059874773
107	0xbe04671d	-0.1292996
108	0x3d9fce88	0.078030646
109	0xbde52736	-0.111891195
110	0x3c272cf9	0.010203593
111	0xbe11e34d	-0.14246865
112	0x3bbfb013	0.005849847
113	0xbdd2e85f	-0.102982275
114	0xbc6a61fb	-0.014305587
115	0xbd4983f0	-0.04919809
116	0xbca0e06e	-0.019638266
117	0xbdabe020	-0.08392358
118	0x3b4cfd08	0.0031278748
119	0x3ca6c275	0.020356396
120	0xbe0c7cee	-0.13719532
121	0xbba47489	-0.005018775
122	0xbd5d52de	-0.054034106
123	0xbe835343	-0.2564946
124	0xbca644c2	-0.020296458
125	0xbe74bce3	-0.2390018
126	0xbdc0f644	-0.094219714
127	0x3d610d2e	0.05494421
128	0xbe680124	-0.22656685
129	0x3d531227	0.051530983
130	0xbd9d38d8	-0.07676858
131	0xbdf95eaf	-0.121762626
132	0x3c4caa4a	0.012491772
133	0xbe801a3e	-0.2502002
134	0xbd813d25	-0.063104905
135	0x3e0e6c7d	0.13908572
136	0xbd54993a	-0.05190394
137	0xbbba4ac7	-0.0056851837
138	0xbdb72d0e	-0.089441404
139	0xbd9d7d6f	-0.0768994
140	0xbd90691f	-0.070513
141	0xbd4498da	-0.047997333
142	0x3d1520dc	0.03640829
143	0x3c59f429	0.013302841
144	0xbdce560b	-0.10075005
145	0x3d21f0d0	0.039536297
146	0xbd36be9a	-0.044615366
147	0x3d84eabc	0.064900845
148	0xbd59800d	-0.053100634
149	0xbd00337b	-0.031299096
150	0xbdb5f8e0	-0.0888536
151	0xbe183c4c	-0.14866751
152	0x3af7a60f	0.0018894094
153	0xbe2009f5	-0.15628798
154	0xbe1597bb	-0.14608662
155	0xbd7b27ad	-0.061317135
156	0xbc43e336	-0.011956027
157	0xbc39aa28	-0.011332072
158	0xbe00136f	-0.12507413
159	0xbe1f1aad	-0.1553752
160	0xbc9f3027	-0.01943214
161	0xbe052a83	-0.13004498
162	0xbd0e6652	-0.03476555
163	0x3d243f1c	0.04009925
164	0xbe2d28e2	-0.16910127
165	0xbd5fe803	-0.054664623
166	0xbc57ce49	-0.013171741
167	0xbc6ff67d	-0.01464617
168	0xbe802464	-0.25027764
169	0xbdac8e6d	-0.08425603
170	0x3dcdee1f	0.100551836
171	0xbe73076c	-0.237333
172	0x3c9f8a40	0.019475102
173	0xbe0cf5aa	-0.13765588
174	0xbde53fe9	-0.111938305
175	0xbf2604b1	-0.6485091
176	0xbc972abd	-0.018452996
177	0xbe233f16	-0.15942034
178	0xbe10dac5	-0.14145954
179	0xbd4c43fb	-0.04986952
180	0x3db13b8d	0.086539365
181	0x3ca34363	0.019929593
182	0xbdce69bd	-0.10078762
183	0x3d66bbfe	0.056331627
184	0xbdfdbd15	-0.1238958
185	0x3c0878ad	0.008329553
186	0xbe156846	-0.14590558
187	0x3ce4d055	0.027931372
188	0xbdbabb1e	-0.09117721
189	0xbe0aaeff	-0.13543318
190	0xbdfc3030	-0.123138785
191	0x3d08b5d1	0.03337652
192	0x3d890717	0.066908054
193	0xbe0904b8	-0.13380706
194	0x3e084c82	0.13310435
195	0xbe57c4a9	-0.21071114
196	0x3d7a90f0	0.06117338
197	0xbc2cec04	-0.010554317
198	0xbdaef416	-0.085426494
199	0xb9e61d12	-0.00043890678
200	0xbb52483d	-0.0032086514
201	0xbe369c5b	-0.17833082
202	0xbd879b32	-0.06621398
203	0xbd80a58f	-0.06281578
204	0xbd0fb75e	-0.035086982
205	0xbe82cef6	-0.25548524
206	0xbe77774c	-0.24166602
207	0xbe076d91	-0.1322539
208	0x3e05b7b2	0.13058355
209	0xbdf7fc4f	-0.12108671
210	0x3e229c12	0.15879849
211	0xbd9c2274	-0.07623759
212	0xbccb7ceb	-0.024839839
213	0x3cfd2b64	0.03090448
214	0x3d70f696	0.058828913
215	0xbde92093	-0.11383166
216	0xbe2b7aab	-0.16746013
217	0xbdedf289	-0.116185255
218	0xbc45e6d5	-0.01207896
219	0xbe284729	-0.16433395
220	0xbd2e9a6d	-0.04262774
221	0xbda13c99	-0.07872886
222	0x3d0fe709	0.03513244
223	0x3b9e495f	0.004830524
224	0x3b4ad715	0.0030950953
225	0xbe12ca56	-0.14334998
226	0x3dbf422d	0.09338794
227	0xbdfcb5ca	-0.12339361
228	0xbda27332	-0.07932128
229	0xbdc10551	-0.09424842
230	0xbda2373c	-0.07920691
231	0xbd7a9308	-0.061175376
232	0xbce46f56	-0.02788512
233	0x3d095d84	0.03353645
234	0x3d2b0f22	0.04176248
235	0xbdb48a52	-0.08815445
236	0xbdc42bef	-0.09578692
237	0xbc6547e0	-0.013994187
238	0x3d0e2f2a	0.034712948
239	0x3c008a01	0.007845403
240	0xbe08f7e9	-0.1337582
241	0x3e1707ab	0.14749019
242	0xbdf96e32	-0.12179221
243	0xbd426e5e	-0.047468536
244	0x3ab5e16c	0.0013876385
245	0x3d621d90	0.055203974
246	0xbd885ea2	-0.06658675
247	0xbc2c11eb	-0.010502319
248	0x3e0f08d9	0.13968219
249	0xbcf401ea	-0.029786069
250	0xbd8043d3	-0.062629364
251	0x3df20cbe	0.11818837
252	0x3d9eca46	0.07753424
253	0xbceec02e	-0.029144373
254	0x3c517195	0.012783428
255	0xbd670f8d	-0.056411315

actor.2.weight f4 [256, 512]
0	0xbd5b046d	-0.053471018
1	0x3ca15f17	0.019698663
2	0x3dbccc1c	0.09218618
3	0xbd6ed457	-0.05830797
4	0xbd21cd84	-0.039502636
5	0x3d5b3d48	0.05352524
6	0xbb85eede	-0.004087313
7	0xbc8d1d5b	-0.017225912
8	0xbd3e474b	-0.04645471
9	0x3d747e69	0.059690867
10	0x3e033d32	0.12816313
11	0xbd93e1be	-0.07220791
12	0x3c0e7308	0.008694418
13	0x3dfe25c6	0.124095485
14	0xbe98bbdb	-0.29830822
15	0xbdb97d05	-0.09057049
16	0xbdc190a5	-0.09451417
17	0x3d122d8c	0.035687968
18	0xbdbf914f	-0.09353887
19	0x3d539efd	0.051665295
20	0x3c214a89	0.009844431
21	0xbddb7f22	-0.10717608
22	0xbe4c229d	-0.19935079
23	0xbd55cdda	-0.05219827
24	0x3e57a550	0.21059155
25	0x3e5f971f	0.21834992
26	0xbcde8ad7	-0.027165813
27	0x3d203850	0.039116204
28	0x3c472c8c	0.012156617
29	0x3e433285	0.1906224
30	0x3ccaf875	0.024776677
31	0xbcd20bf4	-0.025640465
32	0x3dab5aba	0.08366914
33	0x3d57c63e	0.052679293
34	0xbdc3d358	-0.09561795
35	0x3d91b526	0.071146294
36	0xbcd91752	-0.026500378
37	0x3d8afbee	0.06786333
38	0xbace0990	-0.0015719403
39	0xbd59008f	-0.05297905
40	0xbcc5348e	-0.024072912
41	0x3e106d54	0.14104205
42	0xbe0d3b0c	-0.13792056
43	0x3d8c0b03	0.06838038
44	0x3ca684da	0.02032702
45	0x3c9d13bf	0.019174455
46	0xbda5e419	-0.08100147
47	0x3ad70f9b	0.0016407849
48	0xbd89c944	-0.067278415
49	0xbcea5889	-0.02860667
50	0x3d2ac148	0.041688234
51	0xba93654d	-0.00112454
52	0x3c9f4919	0.019444035
53	0x3d6c9b58	0.057765335
54	0x3d87d2c0	0.06631994
55	0x3d20145d	0.03908192
56	0xbe517a36	-0.20456776
57	0x3c643fcf	0.013931229
58	0x3cf40ff5	0.029792765
59	0xbbb5c7c6	-0.0055474965
60	0x3cdce595	0.026964942
61	0xbdac4a74	-0.08412638
62	0x3bbb77ec	0.005721083
63	0x3cacaea3	0.021079367
64	0x3d0871f2	0.03331179
65	0xbcb12c72	-0.021627638
66	0x3e10f880	0.14157295
67	0xbc4ed4cc	-0.012623977
68	0x3d7645cc	0.060125157
69	0x3a621471	0.0008624262
70	0x3d996331	0.074896224
71	0xbbb42657	-0.0054977345
72	0x3d5e91a7	0.054338124
73	0x3dd52ac0	0.104085445
74	0x3ce83989	0.028347747
75	0xbd9bc9e2	-0.076068655
76	0xbd29bbf4	-0.04143901
77	0x3e095bd9	0.13413943
78	0x3dba3378	0.09091848
79	0xbcb57467	-0.022150232
80	0x398efb06	0.00027271378
81	0xbd58a159	-0.052888248
82	0xbdeb7831	-0.11497534
83	0xbd618051	-0.055054013
84	0x3c88ec80	0.016714334
85	0xbd2834be	-0.041065924
86	0xbdfc3574	-0.12314883
87	0xbd91913b	-0.07107779
88	0xbc817c27	-0.01580627
89	0x3bf7bf15	0.0075606206
90	0xbe4f5f7b	-0.20251267
91	0xbd0dda85	-0.034632225
92	0xbdceed4c	-0.101038545
93	0xbd9f8e9e	-0.07790874
94	0x3bab94c2	0.005236239
95	0x3c85e930	0.016346544
96	0xbb3b5561	-0.0028584825
97	0x3ca9e312	0.020738158
98	0x3d8bd6fd	0.06828115
99	0x3d7141ca	0.058900632
100	0x3d36a788	0.044593364
101	0xbc2cae77	-0.010539643
102	0x3c08aceb	0.008342008
103	0x3d067f10	0.03283602
104	0x3d77db33	0.06051178
105	0xbd879922	-0.06621005
106	0xbc7249b6	-0.014788082
107	0x3dd8aca6	0.10579805
108	0x3e10b1d0	0.1413033
109	0xbcb2c982	-0.021824602
110	0x3da0b7fc	0.07847592
111	0xbe2096cf	-0.15682529
112	0xbd94f873	-0.072739504
113	0xbd6b8fd9	-0.05751023
114	0x3b55591e	0.0032554339
115	0xbca45610	-0.020060569
116	0xbc93aa96	-0.018025678
117	0xbb9d7797	-0.004805516
118	0x3cd14a4a	0.02554812
119	0x3df908e4	0.12159899
120	0xbe311424	-0.1729284
121	0xbddd8851	-0.10817016
122	0xbe47fc23	-0.19529776
123	0x3ca57a7b	0.020200005
124	0xbc7a196a	-0.015264848
125	0x3c0a0d86	0.008426076
126	0x3ba6d10f	0.0050908397
127	0x3c3c9502	0.011510136
128	0xbdb8776c	-0.09007153
129	0xbb70b914	-0.003673141
130	0xbe1f1085	-0.15533645
131	0xbd4ec082	-0.05047656
132	0x3be16401	0.0068783765
133	0x3ced744f	0.028986124
134	0x3cc392a4	0.023873635
135	0x3d163665	0.03667297
136	0xbd5cf1da	-0.053941585
137	0x3dcfa6f0	0.10139263
138	0xbce33156	-0.027733486
139	0xbd57a63a	-0.05264876
140	0xbd146705	-0.03623106
141	0xbd973fb2	-0.07385196
142	0x3d0d20a5	0.03445496
143	0x3cc8f4d6	0.02453081
144	0x3a875db7	0.0010327612
145	0x3bab5bc6	0.005229446
146	0xbd9dc2ba	-0.07703157
147	0x3e125007	0.1428834
148	0x3d1574b7	0.03648826
149	0xbc64afef	-0.013957961
150	0x3d35b854	0.044365242
151	0x3c8b61df	0.017014442
152	0xbda58e85	-0.08083824
153	0x3d535e65	0.051603694
154	0x3b9c2410	0.004765041
155	0x3dc0ae34	0.094082266
156	0x3cd1f396	0.025628846
157	0x3c0dcaa2	0.008654268
158	0x3c98bc01	0.018644335
159	0x3cb19376	0.02167676
160	0xbdd5f20c	-0.104465574
161	0xbd1cf4cb	-0.03831939
162	0x3d44bea6	0.04803338
163	0xbc1112a4	-0.008854542
164	0x3da2adb9	0.07943291
165	0x3c31f0ba	0.010860616
166	0xbcb7ce3d	-0.02243721
167	0x3d68ab20	0.056803823
168	0x3dfed51a	0.1244299
169	0xbd5d402d	-0.05401628
170	0x3d6c8bd5	0.05775054
171	0x3bb19585	0.0054194354
172	0x3cf0a5d6	0.029375952
173	0x3c92b696	0.01790933
174	0x3b6acb9b	0.0035826925
175	0x3c90d4ef	0.01767966
176	0x3deb4545	0.114878215
177	0xbdc2a71d	-0.095045306
178	0xbc8e660a	-0.01738264
179	0xbc3d3fae	-0.011550827
180	0x3e1c9027	0.15289365
181	0xbca6aff0	-0.020347565
182	0x3d2fa66a	0.042883314
183	0x3c051a77	0.0081239855
184	0x3d63c091	0.055603568
185	0x3bc3d252	0.005976
186	0x3d011dc6	0.031522535
187	0x3e19bfa2	0.15014508
188	0xbdbf3462	-0.09336163
189	0xbddd5c8e	-0.10808669
190	0xbc62ae81	-0.01383555
191	0xbe099064	-0.13433987
192	0x3d149648	0.036276132
193	0x3c932baa	0.017965157
194	0xbd91fe00	-0.07128525
195	0x3d0aadcf	0.033857163
196	0xbdd18bfd	-0.10231779
197	0x3d1aca73	0.037790727
198	0x3e0ce46f	0.13759016
199	0xbd31c4ae	-0.04340046
200	0x3ddd4895	0.108048595
201	0xbc9101de	-0.017701086
202	0x3cf0a8d5	0.02937738
203	0x3e02bdd4	0.12767726
204	0x3d900b69	0.07033426
205	0xbd2e6b0c	-0.042582557
206	0x3e2ea6a8	0.17055762
207	0x3d15681e	0.036476247
208	0x3d6ad500	0.05733204
209	0x3d818f02	0.06326105
210	0x3e039fdd	0.12853952
211	0x3dae315b	0.085055076
212	0x3dccb105	0.09994701
213	0xbb32e0a9	-0.0027294552
214	0x3c49bbd3	0.012312847
215	0xbd0ac131	-0.033875648
216	0x3d4641d2	0.048402615
217	0xbd3c5d3b	-0.04598735
218	0xbc23d1d2	-0.0099987555
219	0x3cf637a0	0.030055821
220	0xbc8af4e9	-0.016962485
221	0x3d94857e	0.07252024
222	0xbd95f8e6	-0.07322864
223	0xbd0f51c7	-0.0349901
224	0xbd25a821	-0.040443543
225	0x3dad0c62	0.084496275
226	0xbc9066ff	-0.017627237
227	0xbe3134a2	-0.17305234
228	0xbd47c848	-0.048774987
229	0x3cf9c318	0.030488536
230	0x3c908e88	0.01764609
231	0x3c167b19	0.009184622
232	0xbd25749a	-0.040394403
233	0x3d2d1898	0.042259783
234	0x3d205015	0.039138872
235	0xbdbaca72	-0.09120645
236	0xbdee3524	-0.116312295
237	0x3cc301b6	0.023804527
238	0xbd26f96b	-0.040765207
239	0xbce3cd28	-0.027807787
240	0xbddab69a	-0.1067936
241	0xbd0576ce	-0.032584004
242	0xbcfcab1e	-0.030843314
243	0xbcdc701b	-0.026908925
244	0x3cb9ca2b	0.022679409
245	0xbb9785f5	-0.004624123
246	0x3da15a23	0.0787852
247	0x3c50ef14	0.012752313
248	0xbcb7d2ce	-0.022439387
249	0xbd429d3e	-0.04751324
250	0x3dc2569d	0.094891764
251	0x3d956697	0.07294958
252	0x3d19a15e	0.037507407
253	0x3d27243c	0.04080604
254	0xbd96b0ad	-0.07357917
255	0xbbb884e0	-0.0056310743

actor.2.bias f4 [256]
0	0x3b513559	0.0031922667
1	0x3d363bec	0.04449074
2	0xbdb25091	-0.08706773
3	0xbd8d24ca	-0.068917826
4	0xbd92b453	-0.071633
5	0xbe0a9043	-0.13531594
6	0xbdbf9993	-0.09355464
7	0xbe0ab8ef	-0.13547109
8	0xbdc853c3	-0.09781601
9	0xbe079b13	-0.1324275
10	0xbd00694e	-0.031350426
11	0xbd0f22c9	-0.034945283
12	0xbaf4eb5b	-0.0018685864
13	0xbdeee68b	-0.11665066
14	0xbd8a101f	-0.06741356
15	0xbd3e0634	-0.046392635
16	0xbe2303a2	-0.15919355
17	0xbd863cb0	-0.06554544
18	0xbc58c25a	-0.013229931
19	0xbda15571	-0.07877625
20	0xbeaa207e	-0.33227915
21	0xbd4e397f	-0.0503478
22	0xbdf67438	-0.12033886
23	0xbcde4221	-0.027131142
24	0xbd644559	-0.055730198
25	0xbdf6cd47	-0.12050872
26	0xbcd52903	-0.026020532
27	0x3b13a64a	0.0022529536
28	0xbd6c1908	-0.05764106
29	0x3d3f80e4	0.04675378
30	0xbc038fdc	-0.008029904
31	0xbd0ddd7c	-0.034635052
32	0xbc86c2a9	-0.016450243
33	0xbe627dde	-0.22118327
34	0xbd8f4857	-0.069962196
35	0xbd3fb139	-0.046799872
36	0xbcd84b1e	-0.026403006
37	0x3ce40eaa	0.027839024
38	0x3cfea4c6	0.03108443
39	0xbd131395	-0.035907347
40	0xbe933cb6	-0.28757256
41	0x3cacdc23	0.021101063
42	0xbe87e3f2	-0.26541096
43	0xbe44f9a5	-0.19235857
44	0xbc04e2f9	-0.008110755
45	0xbd7134a0	-0.058888078
46	0xbe2499e2	-0.16074327
47	0xbda3d677	-0.0799989
48	0xbd9f30ba	-0.07772966
49	0x3ce3ebbc	0.027822368
50	0xbe8651f2	-0.26234394
51	0xbe3d271b	-0.18471949
52	0x3d32f1cd	0.04368763
53	0xbe6611c6	-0.22467718
54	0xbdf9666e	-0.1217774
55	0xbe24f262	-0.16108087
56	0xbc8d1b2a	-0.017224867
57	0x3c4d52cc	0.012531947
58	0xbddc243e	-0.107491
59	0xbcfd6e04	-0.030936249
60	0xbc994e91	-0.018714221
61	0xbdaa02bd	-0.083013035
62	0xbe09de33	-0.13463669
63	0xbd54bb2a	-0.051936306
64	0xbd8c87a8	-0.06861812
65	0xbcc117ff	-0.023571013
66	0xbe6963c4	-0.22791964
67	0x3d8f042b	0.06983217
68	0xbe5938ac	-0.21213025
69	0xbbd6cd6c	-0.00655525
70	0xbdc11106	-0.09427075
71	0xbd1f82e9	-0.038943205
72	0xbd4851ce	-0.04890614
73	0xbd806812	-0.0626985
74	0xbdc1d510	-0.094644666
75	0x3cf8b63e	0.030360337
76	0x3c8536ae	0.016261425
77	0xbc0e6368	-0.0086906925
78	0xbdc475da	-0.09592791
79	0xbdb44c15	-0.08803574
80	0x3da0f206	0.07858662
81	0xbe749fe8	-0.23889124
82	0xbe911724	-0.28337967
83	0xbe6d310e	-0.23163244
84	0x3be6feca	0.007049416
85	0xbe182cda	-0.1486086
86	0x3c0b757a	0.008511895
87	0xbe35e612	-0.17763546
88	0xbd35fe6a	-0.04443208
89	0xbe4d9d9a	-0.20079651
90	0xbe78edf9	-0.2430953
91	0xbec3b03d	-0.38220397
92	0xbe95bced	-0.292457
93	0x3cae2913	0.02125982
94	0xbe67de34	-0.22643358
95	0x3bd8b2d9	0.006613117
96	0xbe0504ae	-0.12990066
97	0xbd241102	-0.040055282
98	0xbd9f7e70	-0.07787788
99	0x3dc282f9	0.09497637
100	0xbc42be02	-0.011886122
101	0xbd3d346a	-0.046192564
102	0xbbbae69a	-0.0057037594
103	0x3d84937f	0.06473445
104	0xbe46113c	-0.19342512
105	0xbe46b219	-0.19403876
106	0xbd6f584f	-0.058433827
107	0x3cfab150	0.030602127
108	0xbe02e689	-0.12783255
109	0xbd317997	-0.043328848
110	0xbe0c236c	-0.13685387
111	0xbe47ff7e	-0.19531056
112	0xbdd0019b	-0.10156556
113	0xbd1eadf2	-0.038740106
114	0xbc1ea4d6	-0.009682855
115	0xbb033500	-0.0020020604
116	0x3d5ea3f9	0.054355595
117	0xbe979738	-0.29607558
118	0xbd19a840	-0.03751397
119	0xbd1c4d88	-0.038159877
120	0xbcf20386	-0.029542696
121	0x3cac0bdb	0.021001747
122	0xbd6eddf7	-0.05831715
123	0xbe90b2ad	-0.2826132
124	0xbe8e8bea	-0.2784112
125	0xbcdba7e2	-0.026813451
126	0x3d361480	0.044453144
127	0xbe4ab8c8	-0.19797051
128	0xbcac2f95	-0.021018783
129	0xbdeee3c9	-0.1166454
130	0xbe322652	-0.1739743
131	0x3cf5943f	0.029977916
132	0xbd185269	-0.037187967
133	0x3c5d2957	0.013498626
134	0xbe929ef5	-0.286369
135	0xbdfe845a	-0.12427588
136	0xbd36f340	-0.044665575
137	0x3c11445c	0.008866396
138	0xbde18d42	-0.11013271
139	0xbd6432bb	-0.055712443
140	0xbdb1300a	-0.08651741
141	0xbe1582bb	-0.14600651
142	0xbd4466aa	-0.04794947
143	0xbd29129b	-0.04127751
144	0xbd988f6e	-0.07449232
145	0xbdfb1cef	-0.12261378
146	0x3cedc5ad	0.029024923
147	0xbe3770d0	-0.17914128
148	0xbce11663	-0.027476495
149	0x3c0465c8	0.008080907
150	0xbcbac520	-0.022799075
151	0xbd56272c	-0.05228345
152	0xbdb1bed1	-0.086789735
153	0xbe04f900	-0.12985611
154	0xbd1adb4b	-0.03780679
155	0xbe8e1cc7	-0.2775633
156	0xbdf8c4c8	-0.12146908
157	0xbce4ccf9	-0.02792977
158	0x3d275c66	0.040859602
159	0x3da6959f	0.08134007
160	0xbe16aa30	-0.14713359
161	0xbe5ec64b	-0.2175533
162	0xbe66c884	-0.22537428
163	0x3cbb49a1	0.022862257
164	0xbd819bcb	-0.06328543
165	0xbdadc0fb	-0.08484074
166	0xbd1a0057	-0.03759798
167	0x3ba9aa63	0.0051777824
168	0xbc5d3ce8	-0.013503291
169	0xbbf3cfbe	-0.0074405363
170	0xbe884552	-0.26615387
171	0x3d086062	0.033295043
172	0xbeae4940	-0.3404026
173	0xbda420a9	-0.08014042
174	0xbcba1bfa	-0.022718418
175	0xbce4f7f8	-0.027950272
176	0x3bf66d9b	0.00752039
177	0xbdd2c7aa	-0.10291989
178	0xbd84fb14	-0.06493202
179	0xbda521b6	-0.080630705
180	0xbd1f7db6	-0.038938247
181	0xbd429e41	-0.047514204
182	0xbdea4923	-0.11439731
183	0x3d849964	0.064745694
184	0x3d55a287	0.05215695
185	0xbdf45fdf	-0.119323485
186	0xbda85bf9	-0.082206674
187	0xbdf4d185	-0.11954025
188	0xbdd0e8ee	-0.10200678
189	0xbe85fb1b	-0.2616814
190	0x3cc24f59	0.023719477
191	0xbe96ab73	-0.2942768
192	0xbea3549a	-0.31900483
193	0xbdb3e40b	-0.0878373
194	0x3d305f8c	0.04305987
195	0xbe62d12b	-0.22150104
196	0xbe5f1c05	-0.21788032
197	0xbc33c95d	-0.010973302
198	0xbe34f365	-0.17670973
199	0xbdebb77e	-0.11509608
200	0xbd485d90	-0.048917353
201	0xbcda0258	-0.026612446
202	0xbc95a569	-0.01826735
203	0x3bae91ff	0.0053274627
204	0xbdcb902e	-0.099396095
205	0xbd1616af	-0.036642727
206	0xbc8b02cd	-0.016969109
207	0x3d1380f3	0.036011647
208	0x3d181348	0.037127763
209	0xbe2463b9	-0.16053666
210	0xbc52f17d	-0.012874958
211	0xbea72d96	-0.32651967
212	0xbde7763b	-0.113018475
213	0xbc7eb92b	-0.015547077
214	0xbd249baf	-0.040187534
215	0xbe0224c0	-0.12709332
216	0xbd69cc07	-0.05707934
217	0xbd8da41a	-0.069160655
218	0xbe7986ca	-0.24367824
219	0xbd405914	-0.04695995
220	0xbe9139d1	-0.28364423
221	0xbda6c0c9	-0.081422396
222	0xbd551636	-0.052023135
223	0x3d76feb6	0.060301505
224	0xbe2adb1b	-0.16685145
225	0x3c917a7e	0.017758604
226	0xbcfb7eed	-0.030700171
227	0x3cd9085a	0.02649324
228	0xbe32450e	-0.17409155
229	0xbdf80fd9	-0.12112398
230	0xbe81d006	-0.25354022
231	0xbd237cab	-0.039913815
232	0x3cc5929f	0.024117766
233	0xbe76ead0	-0.24113011
234	0x3ce50af8	0.027959332
235	0xbea44656	-0.32084912
236	0xbe205289	-0.15656485
237	0xbd896160	-0.06708026
238	0xbea9cfb6	-0.33166283
239	0xbe84133e	-0.2579593
240	0x3c03d9d1	0.008047537
241	0xbe1885e2	-0.14894822
242	0xbdcaf977	-0.09910863
243	0xbdcc9045	-0.09988455
244	0xbe6da1e8	-0.23206294
245	0xbc89a2ef	-0.016801326
246	0x3d4202df	0.04736602
247	0x3b1911b5	0.0023356501
248	0xbdb79b4a	-0.08965166
249	0x3bd89a08	0.006610159
250	0xbd4e1ef4	-0.050322488
251	0xba1bfbca	-0.00059503
252	0x3d97a8a3	0.07405212
253	0xbdd56efb	-0.104215585
254	0xbd4699fd	-0.0484867
255	0xbd63c2fa	-0.055605866

actor.4.weight f4 [128, 256]
0	0x3cbce399	0.023057746
1	0x3c716160	0.014732689
2	0x3e2d6ad0	0.16935277
3	0xbd387391	-0.045032088
4	0x3d7bc4f4	0.061467126
5	0xbc5a77c0	-0.013334215
6	0x3ddd227a	0.107975915
7	0x3e066526	0.13124523
8	0xbcdc4c4b	-0.026891848
9	0x3d4ae50b	0.04953484
10	0x3d49be63	0.049253833
11	0x3d98370d	0.07432375
12	0x3bd61ac3	0.006533952
13	0xbdf10b4e	-0.11769734
14	0xbddb588a	-0.10710247
15	0x3dc433f8	0.09580225
16	0xbdc4053a	-0.095713094
17	0xbd645c70	-0.055752218
18	0xbe3defb4	-0.1854847
19	0xbe24b4bb	-0.16084568
20	0xbd8ab86c	-0.06773457
21	0xbddd7873	-0.108139895
22	0xbd003203	-0.031297695
23	0x3d258743	0.0404122
24	0x3db2a7a5	0.08723382
25	0x3d2fd1e2	0.04292477
26	0x3ce466f9	0.027881132
27	0xbdf65cd7	-0.120294265
28	0x3da64cac	0.08120093
29	0xbe821a45	-0.25410667
30	0x3d3aee5d	0.045637477
31	0xbd8aa55e	-0.067698225
32	0xba22f76e	-0.00062166795
33	0xbc1c0a8b	-0.009523998
34	0xbd5a0e39	-0.05323622
35	0x3cd4526f	0.025918214
36	0xb9fef7a6	-0.00048631168
37	0xbcd2dca8	-0.025739983
38	0xbe87cd8c	-0.26524007
39	0x3cd1b1ba	0.025597442
40	0x3d726915	0.059182245
41	0xbc9a831f	-0.018861352
42	0x3d927dd6	0.071529076
43	0xbd8a297a	-0.06746192
44	0xbe04b10a	-0.1295816
45	0xbc5b65e6	-0.013390994
46	0xbc32029e	-0.010864882
47	0xbe082bc4	-0.13297945
48	0x3e05901f	0.13043259
49	0x3d0cfe53	0.03442223
50	0x3d76e34a	0.060275353
51	0x3dc9043b	0.0981526
52	0xbd2f4496	-0.042790018
53	0xbddfa363	-0.109198354
54	0x3da4711c	0.080293864
55	0xbddc67d0	-0.10761988
56	0x3c27ec5a	0.010249222
57	0x3d67c1ac	0.056581184
58	0x3dbd3e73	0.09240427
59	0x3e1be8c0	0.15225506
60	0xbdc48114	-0.09594932
61	0x3d56a941	0.052407507
62	0x3d87bd0d	0.066278554
63	0xbc9969c3	-0.018727189
64	0xbc416a4c	-0.011805128
65	0xbd9c7f76	-0.07641499
66	0x3bbf22ff	0.0058330293
67	0x3c35da30	0.011099383
68	0x3d7943d2	0.060855694
69	0x3c89ec1f	0.016836224
70	0x3ce3b142	0.027794484
71	0xbdf84b76	-0.12123768
72	0x3d9f33e5	0.0777357
73	0xbc411a8d	-0.011786115
74	0x3d984209	0.0743447
75	0xbd792692	-0.0608278
76	0x3d1d3cff	0.03838825
77	0x3dcef277	0.1010484
78	0x3d5d10a9	0.053970966
79	0x3c6bf017	0.014400504
80	0xbe1c5a51	-0.15268828
81	0xbcfba009	-0.03071596
82	0x3d36d5c6	0.044637464
83	0x3d9e4633	0.07728233
84	0xbdb6c44c	-0.089241594
85	0xbce2fbae	-0.0277079
86	0xbd3a75a3	-0.045522343
87	0x3d8e3ea2	0.0694554
88	0xbd06753a	-0.03282664
89	0x3db1ee73	0.08688059
90	0x3d7760f9	0.060395215
91	0x3d24cb26	0.0402328
92	0xbd97da6a	-0.07414706
93	0xbe137fe6	-0.14404258
94	0xbcb31f1f	-0.021865426
95	0xbdce87f0	-0.10084522
96	0xbd3b8695	-0.045782644
97	0x3dd46944	0.1037164
98	0xbc63d5a5	-0.013905917
99	0x3d356b9d	0.04429208
100	0xbb1a42f9	-0.0023538454
101	0xbd822d0e	-0.0635625
102	0x3d1670bb	0.036728602
103	0xbe4b00b9	-0.19824494
104	0xbca47d75	-0.020079354
105	0xbe3f579b	-0.18685763
106	0x3cd5002e	0.026001062
107	0xbe85d009	-0.2613528
108	0xbd81b567	-0.06333428
109	0xbd0fdee4	-0.035124674
110	0xbd5dc603	-0.054143917
111	0x3ced8bd9	0.028997349
112	0x3c05ff3d	0.008178529
113	0x3d6b5706	0.05745604
114	0xbe2c7217	-0.16840397
115	0xbd72f0d5	-0.059311707
116	0xbe4fd92d	-0.2029769
117	0xbc879ebc	-0.016555183
118	0xbd544565	-0.051823992
119	0xbe1aae02	-0.15105441
120	0xbe070e7b	-0.13189118
121	0x3cd33188	0.025780454
122	0xbc937724	-0.018001147
123	0x3d76c2b5	0.06024428
124	0x3c9f9386	0.019479524
125	0x3d660f69	0.05616704
126	0xbd1bd5d5	-0.038045723
127	0x3c79f460	0.015256017
128	0x3e160ca5	0.14653261
129	0xbce57a56	-0.028012436
130	0x3b0f5f57	0.0021876895
131	0xbe025063	-0.12725978
132	0xbb92551d	-0.0044657127
133	0xbdbf5c7d	-0.093438126
134	0x3dbca631	0.09211386
135	0x3d9b540e	0.075843915
136	0x3d669e19	0.056303117
137	0xbd31ced6	-0.043410145
138	0x3d67ab8b	0.05656008
139	0x3ce6f844	0.028194554
140	0x3d4406bd	0.04785799
141	0x3d84af0e	0.064787015
142	0x3e095435	0.13411029
143	0x3d113042	0.035446413
144	0x3df41ee2	0.11919953
145	0xbda642d3	-0.081182145
146	0xbe1a2db7	-0.15056501
147	0x3d7892dd	0.060686935
148	0x3ca0efcd	0.019645596
149	0xbd8f6dc0	-0.07003355
150	0xbd8d9040	-0.06912279
151	0xbd81580b	-0.06315621
152	0x3c99155d	0.018686945
153	0x3d0ede30	0.034879863
154	0x3de53e91	0.11193574
155	0x3dc26aed	0.09493051
156	0x3d933206	0.071872756
157	0xbd1a38f2	-0.037651964
158	0xbceea825	-0.029132912
159	0x3b904caa	0.0044036703
160	0x3d9cd818	0.07658404
161	0x3c62f521	0.013852389
162	0x3e4d4afa	0.20048133
163	0xbd31411d	-0.043274987
164	0x3e2df224	0.169869
165	0xbbce863b	-0.0063026226
166	0xbd83496f	-0.06410491
167	0x3d853d88	0.06505877
168	0xbe06f2d0	-0.13178563
169	0x3db7bece	0.0897194
170	0x3dc5fac1	0.09666968
171	0xbbd20f89	-0.0064105433
172	0x3e0e8339	0.13917245
173	0x3e5fd660	0.21859121
174	0xbbb39332	-0.0054801935
175	0xbe009b52	-0.1255925
176	0xbdbd74b5	-0.09250776
177	0x3c696f30	0.014247701
178	0xbdaf7d05	-0.085687675
179	0xbd8ab392	-0.067725316
180	0x3df7dd08	0.12102705
181	0xbce45de7	-0.027876807
182	0xbd2dd95a	-0.04244361
183	0x3bdded8c	0.0067727026
184	0xbd963117	-0.07333582
185	0x3e0bbe85	0.13646896
186	0xbdadd12e	-0.084871635
187	0x3e2af58a	0.16695228
188	0x3dbd5fca	0.09246786
189	0x3c7ee86d	0.015558344
190	0xbda3c90f	-0.07997333
191	0xbd3ab331	-0.045581046
192	0xbd699b9a	-0.05703316
193	0x3d9499b9	0.07255883
194	0xbdaa37d9	-0.08311433
195	0xbdb78fd5	-0.08962981
196	0x3d8cc8e6	0.06874256
197	0xbd594d4a	-0.053052224
198	0xbe0da4ed	-0.13832445
199	0x3d145153	0.03621037
200	0x3ceeff7f	0.029174564
201	0x3d742312	0.05960376
202	0xbdebd8c1	-0.11515952
203	0xbe01d987	-0.12680636
204	0x3dc50faa	0.09622128
205	0xbd9d3b1d	-0.076772906
206	0x3d9ccc63	0.07656171
207	0x3d9a8a9d	0.0754597
208	0xbe0c365f	-0.13692616
209	0x3dcf83ca	0.10132559
210	0xbd8911f2	-0.06692876
211	0x3d253e1d	0.04034244
212	0x3d08a850	0.03336364
213	0xbbdc011c	-0.0067139994
214	0x3baba00f	0.0052375863
215	0x3d4e9b51	0.05044109
216	0x3e038152	0.128423
217	0x3e09dc8a	0.13463035
218	0xbcd2500a	-0.025672931
219	0xbd486a90	-0.04892975
220	0x3cfdd13d	0.030983562
221	0x3d4ebc53	0.05047257
222	0x3d463583	0.048390877
223	0xbdd0d3e2	-0.101966634
224	0xbd44a2f8	-0.04800698
225	0xbe93c88f	-0.28863952
226	0xbc540cc5	-0.012942498
227	0x3c651a98	0.013983391
228	0x3cc02b95	0.023458282
229	0xbcc4b023	-0.02400977
230	0x3acf7e31	0.0015830455
231	0xbd11784a	-0.035515107
232	0xbe1722ca	-0.14759365
233	0x3dc0ad8a	0.094081
234	0xbda288fe	-0.079362854
235	0xbce2ffbe	-0.027709838
236	0x3e3641a7	0.17798482
237	0xbdc6ac46	-0.09700827
238	0x3ca081a4	0.019593067
239	0x3dab7d13	0.083734654
240	0xbc1f48bc	-0.009721931
241	0x3d1aa166	0.037751578
242	0xbe207bdd	-0.1567225
243	0xbd7721d0	-0.06033498
244	0x3e645533	0.22298126
245	0xbe124103	-0.14282613
246	0xbc7423c5	-0.014901106
247	0xbd05b69c	-0.032644853
248	0x3d90efcb	0.07076987
249	0x3c43f043	0.011959138
250	0xbe1f6660	-0.15566397
251	0x3b7e9877	0.00388482
252	0xbc8e863b	-0.01739799
253	0xbd14c771	-0.036323015
254	0xbcff60c1	-0.031174066
255	0x3d92bb71	0.07164658

actor.4.bias f4 [128]
0	0xbd8caba6	-0.06868677
1	0xbe5b95c4	-0.2144385
2	0xbe1c2baa	-0.15251032
3	0xba1d7f51	-0.00060080463
4	0x3cfc7025	0.030815193
5	0xbc3372c0	-0.0109526515
6	0x3dbc43c0	0.0919261
7	0xbd7dd0ee	-0.06196683
8	0xbd8f42cd	-0.06995163
9	0xbdda5d15	-0.10662285
10	0x3d39e781	0.045386795
11	0x3b56bb7e	0.0032765563
12	0xbbf7a45a	-0.007557434
13	0xbddb81c0	-0.10718107
14	0xbd34ea63	-0.04416884
15	0x3d812bbc	0.0630717
16	0x3b9e8d11	0.004838594
17	0x3ccb200a	0.02479555
18	0x3ce622da	0.02809279
19	0xbdc74b6e	-0.09731184
20	0xbd97b9a8	-0.07408458
21	0x3dd66476	0.1046838
22	0x3ccd5620	0.025065482
23	0x3d8eaa5e	0.06966089
24	0xbd1c09f8	-0.038095444
25	0x3c10633b	0.008812721
26	0xbd0340e9	-0.032044325
27	0x3c39b2f7	0.011334172
28	0xbb523d8c	-0.0032080142
29	0x3c7d104f	0.015445783
30	0xbd549ea9	-0.051909123
31	0xbe62a258	-0.22132242
32	0xbe35f815	-0.17770417
33	0xbd2c6a85	-0.042093772
34	0xbe0ce27f	-0.13758276
35	0xbd07f073	-0.033188295
36	0x3dbc9b0c	0.0920926
37	0x3cbfdd91	0.02342108
38	0xbd72796b	-0.059197824
39	0xbda98bfe	-0.082786545
40	0xbe4b5ccc	-0.19859618
41	0xbcf2b18e	-0.02962568
42	0x3cc2ad3e	0.023764249
43	0xbd372e5f	-0.044721957
44	0xbd9e73ab	-0.07736906
45	0xbe00dfcf	-0.12585376
46	0x3d527c04	0.0513878
47	0xbc72ebda	-0.014826739
48	0xbe4d510b	-0.20050447
49	0x3c92a976	0.01790307
50	0x3d3674b4	0.04454489
51	0xbd5f166d	-0.054464746
52	0xbd44ea36	-0.048074923
53	0xbcb89e0f	-0.022536306
54	0x3cf0d2ab	0.02939733
55	0x3d4be94b	0.049783032
56	0xbe877ff3	-0.26464805
57	0xbdce5a46	-0.10075812
58	0xbe0c2e0d	-0.13689442
59	0x3db4d377	0.08829396
60	0xbdcf88ab	-0.10133489
61	0xbe46e5b6	-0.19423565
62	0x3d7b8b56	0.061412178
63	0x3d955461	0.072914846
64	0x3da8cf0c	0.08242616
65	0xbd5145ab	-0.05109183
66	0xbd5d9ad0	-0.05410272
67	0x3dcccd30	0.10000074
68	0xbbc6748b	-0.0060563735
69	0xbe6f23df	-0.23353527
70	0x3c89c524	0.016817637
71	0x3d23807d	0.039917458
72	0x3d954290	0.072880864
73	0xbdd9ed1e	-0.1064093
74	0xbdd65f98	-0.10467452
75	0xbb7e2da3	-0.0038784526
76	0xbd589907	-0.052880313
77	0xbd48c6d8	-0.049017757
78	0x3d43f06f	0.047836717
79	0xbd5fb016	-0.054611288
80	0xbe3b802b	-0.18310611
81	0x3c8a5762	0.01688737
82	0xbe6d788e	-0.23190519
83	0xbd3c783a	-0.046013094
84	0xbe45d9fc	-0.19321436
85	0x3ccf4d17	0.025305314
86	0xbc182ee8	-0.009288527
87	0x3b9c13df	0.004763111
88	0x3d1dc8a3	0.03852142
89	0xbdecf8df	-0.11570906
90	0x3d24dd68	0.040250212
91	0xbcb3a468	-0.021928981
92	0x3d4a186c	0.049339697
93	0xbc51177a	-0.012761945
94	0xbc653b1e	-0.013991145
95	0xbd29e9f4	-0.04148288
96	0xbc316cda	-0.010829175
97	0x3df326be	0.11872624
98	0xbdb9969e	-0.09061931
99	0xbd427a24	-0.047479764
100	0xbd759e39	-0.059965346
101	0xbe7a4247	-0.24439345
102	0x3d9c438c	0.07630071
103	0xbcb4148d	-0.021982456
104	0xbd2fd141	-0.04292417
105	0xbd8785b2	-0.06617297
106	0x3c7d75d7	0.01546999
107	0x3b39d3e0	0.0028355047
108	0xbdb0f05d	-0.08639596
109	0xbd60c708	-0.05487731
110	0x3c87bfef	0.016571013
111	0xbd240517	-0.040043917
112	0xbdeda1de	-0.11603139
113	0xbc17d3f0	-0.009266838
114	0x3bfb83a0	0.007675603
115	0x3d173f3d	0.036925543
116	0xbd98ec92	-0.07466997
117	0x3cff00fc	0.0311284
118	0xbd28c03f	-0.041198965
119	0xbce0d52d	-0.0274454
120	0x3cc84d63	0.024450963
121	0x3ce667cc	0.028125666
122	0xbda6e29e	-0.081486925
123	0xbd49cb67	-0.049266245
124	0xbcd300c3	-0.0257572
125	0xbe566ecf	-0.20940708
126	0xbe5e8f8c	-0.21734446
127	0x3d358d0c	0.044323966

actor.6.weight f4 [14, 128]
0	0xbc755609	-0.014974126
1	0xba4f92ce	-0.0007918299
2	0xbddd1e7a	-0.107968286
3	0x3b589e5e	0.0033053379
4	0x3c74b2f5	0.014935245
5	0xbbe1f40e	-0.0068955487
6	0xbd061063	-0.03273047
7	0xbcc0b11a	-0.023521949
8	0xbce0b0ce	-0.027428057
9	0xbdd51b3c	-0.10405585
10	0x3c390fb4	0.011295248
11	0x3c34a092	0.011024611
12	0xbd431d22	-0.047635205
13	0x38c05a80	9.1721304e-05
14	0x3c7478e6	0.014921403
15	0xbba4dd3f	-0.0050312574
16	0xbd42b3b9	-0.047534678
17	0x3b84ab30	0.0040487275
18	0xbbe8e120	-0.007106915
19	0x3bb2bcd3	0.0054546385
20	0x3cfca525	0.030840466
21	0x3d83ce81	0.06435872
22	0x3ca065f9	0.019579874
23	0xbc4635b4	-0.012097765
24	0xbc9e1eea	-0.01930185
25	0x3d45d299	0.048296545
26	0xbcd6f9a0	-0.026242077
27	0x3c5d4da8	0.013507284
28	0x3d2788ef	0.040902074
29	0xbd0bb514	-0.034108236
30	0x3dcab319	0.098974414
31	0x3b8eb624	0.004355209
32	0xbd958916	-0.07301538
33	0xbba0a8eb	-0.004902949
34	0xbcefe65a	-0.029284645
35	0xbd54d52e	-0.051961116
36	0xbc7b5362	-0.015339704
37	0x3d022096	0.031769358
38	0xbbc11bc0	-0.0058932006
39	0x3cafec4e	0.021474984
40	0xbc882ccb	-0.016622921
41	0xbccc65a2	-0.024950806
42	0x3c1b53f5	0.009480466
43	0x3bf31eeb	0.007419457
44	0x3c74613a	0.014915759
45	0xbd2191aa	-0.039445557
46	0xbc711e30	-0.01471667
47	0x3d2e50c2	0.042557485
48	0xbb8513aa	-0.004061182
49	0x3ab5ddad	0.0013875269
50	0x3ba589d5	0.0050518312
51	0x3cd2ba0a	0.025723476
52	0x3c528fae	0.012851639
53	0xbd126b01	-0.035746578
54	0x3c8e934c	0.017404221
55	0x3d0e6db3	0.034772586
56	0x3a8e3560	0.0010849647
57	0x3d32fa2e	0.04369562
58	0x3c633d0c	0.013869535
59	0xbc3ab459	-0.011395537
60	0x3d079f80	0.033111095
61	0x3c594f86	0.013263589
62	0x3d90b55b	0.07065841
63	0x3b23f6b6	0.0025018877
64	0x3d086e13	0.0333081
65	0xbdbc45e1	-0.09193016
66	0x3daf3cba	0.085565045
67	0x3d7575c4	0.059926763
68	0x3caf0b48	0.021367684
69	0x3a94ac41	0.001134284
70	0xbd616403	-0.05502702
71	0x3b6497e9	0.0034880585
72	0x3d6f4c80	0.058422565
73	0x3d8abacc	0.0677391
74	0x3c81e808	0.015857711
75	0xbce10d9f	-0.027472315
76	0x3b8620f8	0.0040932857
77	0x391654f5	0.00014336764
78	0x3cbfdc3d	0.023420447
79	0x3b8e4d95	0.0043427446
80	0xbdc613cb	-0.09671744
81	0xbc2b3777	-0.010450236
82	0xbcadd968	-0.021221831
83	0xbd0d8feb	-0.03456108
84	0xbd9a6291	-0.07538331
85	0xbc347108	-0.011013277
86	0xbc45db81	-0.01207626
87	0x3b9fc1b6	0.004875387
88	0xbb5f6320	-0.0034086183
89	0xbd630f3f	-0.05543446
90	0xbc886460	-0.016649425
91	0x3d5f0fdb	0.05445848
92	0x3c785b85	0.015158539
93	0x3e0ad2e3	0.1355701
94	0x3c377f6c	0.011199813
95	0xbac2262e	-0.0014812404
96	0xbd7afc7a	-0.061275937
97	0x3cf50149	0.02990784
98	0x3d2dc818	0.042427152
99	0x3e1cbf95	0.15307458
100	0x3abed4a2	0.0014559219
101	0xbd412ce7	-0.047161963
102	0x3c8842f6	0.016633492
103	0x3d4d173e	0.050070994
104	0xbd097815	-0.033561785
105	0xbcc85d96	-0.024458688
106	0x3d3a2d57	0.045453396
107	0x3b9c87cf	0.004776932
108	0xbd68a36c	-0.056796476
109	0xbcdcb561	-0.026941957
110	0xbd827838	-0.06370586
111	0xbd3508f2	-0.044197984
112	0xbbfcd278	-0.0077155195
113	0x3c55fb0f	0.013060345
114	0xbc3ec4ab	-0.011643569
115	0x3d5801df	0.05273616
116	0xbafb771d	-0.0019185279
117	0x39cae5e2	0.00038699718
118	0xbc635b08	-0.013876684
119	0xbc89d290	-0.016824037
120	0x3bdb498e	0.006692118
121	0x3d4234af	0.047413524
122	0x3bc97380	0.006147802
123	0xbd1c6a21	-0.03818715
124	0xbbcf9486	-0.006334844
125	0x3cd02b42	0.025411252
126	0xbd0d9dae	-0.034574203
127	0x3c55e316	0.01305463
128	0x3c34bcdc	0.011031356
129	0x3d358548	0.04431656
130	0x3e17986d	0.1480424
131	0xbc2315fc	-0.009953972
132	0xbcf8d76e	-0.030376162
133	0xbc928257	-0.017884417
134	0xbc4c7cad	-0.012480897
135	0x3d8d70c5	0.06906275
136	0xbbadad26	-0.005300182
137	0x3dce6100	0.10077095
138	0x3bd5b67f	0.0065219994
139	0x3c1cfd87	0.00958193
140	0xbd2dc586	-0.0424247
141	0xbc325b7d	-0.01088607
142	0xbcb61006	-0.022224437
143	0x3d67e7f4	0.056617692
144	0xb9daf04d	-0.00041759238
145	0x3ca9cea8	0.020728424
146	0xbc592862	-0.013254257
147	0x3c0b74cf	0.008511736
148	0x3e05184e	0.12997553
149	0x3c0e7fdd	0.008697477
150	0xbc988978	-0.018620238
151	0x3c6c7b70	0.014433727
152	0xbc3101d4	-0.0108036585
153	0xbd3bb363	-0.045825373
154	0x3cde61a0	0.02714616
155	0x3ca84fdd	0.020545894
156	0xbd88e426	-0.06684141
157	0x3cd0ea55	0.025502363
158	0x3d58afe1	0.052902106
159	0xbb58ff08	-0.0033110995
160	0xbda719e6	-0.081592366
161	0x3adba514	0.0016757571
162	0xbcafb841	-0.021450164
163	0x3baf91c1	0.0053579514
164	0x3ce56eb2	0.028006885
165	0xbb19a74a	-0.002344566
166	0x3b17c2d4	0.0023156898
167	0x3d298d86	0.041394733
168	0x3bb919f8	0.0056488477
169	0xbc674e51	-0.014117793
170	0x3cdf65b1	0.02727017
171	0x3cb03aa8	0.021512344
172	0xbda16dbb	-0.078822576
173	0x3cd5cd9a	0.026099015
174	0xbba39fab	-0.004993399
175	0x3d5c3772	0.053763814
176	0xbd8d24f8	-0.06891817
177	0x3b5776c1	0.003287718
178	0x3cb2f108	0.021843448
179	0xbae14ade	-0.001718845
180	0xbc7e35a4	-0.015515719
181	0xbc9b91da	-0.018990446
182	0xbc658e63	-0.014010998
183	0xbd1c5719	-0.038169
184	0xbd8177d6	-0.06321685
185	0x3d618ec5	0.055067796
186	0x3bb114ed	0.005404106
187	0x3da125fb	0.07868572
188	0xbd9089ab	-0.07057508
189	0xbd63a7a2	-0.05557979
190	0x3bb394f0	0.005480401
191	0xbbf24a50	-0.0073941126
192	0xbbcebd4e	-0.006309188
193	0xbb9ca982	-0.004780949
194	0xbcde0a1c	-0.02710443
195	0x3d4f1be8	0.050563723
196	0x3c949f6e	0.018142428
197	0xbdc2a7c5	-0.09504656
198	0xbd909606	-0.07059865
199	0x3c8456fd	0.01615476
200	0xbc6691a6	-0.014072811
201	0xbda95472	-0.0826806
202	0x3c0c1617	0.0085501885
203	0x3c6d5dcb	0.014487694
204	0xbc0beb07	-0.008539922
205	0x3c1407dd	0.009035078
206	0x3d024cc2	0.031811483
207	0xbc50c5ce	-0.012742473
208	0xbda90bda	-0.08254214
209	0x3d651579	0.05592868
210	0xbd020f87	-0.03175309
211	0x3cb043a6	0.021516632
212	0xbbaa83f1	-0.005203717
213	0x3c76556a	0.015035013
214	0x3c097e43	0.00839192
215	0x3b54d4f1	0.0032475556
216	0xbb1f9626	-0.002435097
217	0xbd2bc809	-0.041938815
218	0xbbb35103	-0.005472304
219	0xbd2a4458	-0.041569084
220	0xbb81dba2	-0.00396295
221	0x3b8adfd8	0.00423811
222	0xbd1546d5	-0.036444504
223	0x3c4060b9	0.0117418105
224	0x3d3a8104	0.045533195
225	0x3b2e3ed0	0.0026587732
226	0x3ca0c713	0.019626176
227	0xbddb3f61	-0.10705448
228	0xbb59a207	-0.0033208148
229	0xbd4e74c4	-0.050404325
230	0xbc3f516d	-0.011677128
231	0xbd13a2cd	-0.03604393
232	0x3cf90d82	0.030401949
233	0xbc84ebe6	-0.016225766
234	0x3bac2a7c	0.005254088
235	0xbc9460aa	-0.0181125
236	0x3d1575d1	0.03648931
237	0xbd55b79c	-0.052177057
238	0x3c85195e	0.016247448
239	0x3d8a67ae	0.067580566
240	0xbd938b89	-0.072043486
241	0xbbaa9124	-0.0052052904
242	0xbd011401	-0.031513218
243	0x3d7c76f2	0.061636873
244	0xbb9c22f4	-0.004764909
245	0x3d488b5d	0.048961032
246	0x3bfa355c	0.0076357555
247	0xbd0ded5d	-0.034650195
248	0x3951800e	0.00019979497
249	0x3d5ff996	0.054681383
250	0x3a425ccb	0.000741434
251	0x3cf757ec	0.030193292
252	0x3d355be9	0.044277105
253	0x3d823a58	0.063587844
254	0x3e288bd9	0.16459598
255	0x3cd35ef7	0.025802119

actor.6.bias f4 [14]
0	0x3df8cca9	0.12148411
1	0x3d7c7be1	0.061641578
2	0x3cd336f2	0.025783036
3	0xbd776c5a	-0.060406066
4	0xbba67b65	-0.0050806277
5	0xbd94c1bf	-0.07263517
6	0x3d857633	0.06516685
7	0x3da1e2d8	0.07904595
8	0xbcc5ae00	-0.024130821
9	0x3c6be983	0.014398935
10	0xbcc7fdca	-0.024413008
11	0xbd5548bd	-0.05207132
12	0x3d4ff7fa	0.0507736
13	0xbdea6a7a	-0.1144609

normalizer._mean f4 [1, 81]
0	0x3dfc5a6c	0.12321934
1	0x3e0be656	0.13662085
2	0x3e6de315	0.23231156
3	0x3d8399d7	0.06425827
4	0xbd683602	-0.05669213
5	0xbf41a1ce	-0.7563752
6	0x38ba9e65	8.8986744e-05
7	0x3ab18c93	0.0013545923
8	0x3da3496a	0.07972987
9	0x3ea6a6ef	0.32549235
10	0xb947aea6	-0.0001904318
11	0x3dccf18f	0.10007011
12	0xb9435e39	-0.0001863175
13	0xbaab19e1	-0.0013053977
14	0x3ed01b6f	0.4064593
15	0xbecf98ea	-0.40546352
16	0x3ac318a5	0.0014884664
17	0x39851b86	0.00025388243
18	0x3f335725	0.70054847
19	0x3e1fb79e	0.15597388
20	0x3d8986ab	0.06715139
21	0x3ebca854	0.36847174
22	0xbe4a4098	-0.19751203
23	0xbe1d49be	-0.15360162
24	0xbe80efbf	-0.25182912
25	0xbe7d7df0	-0.24755073
26	0xbe134afc	-0.14384073
27	0xbed3fdda	-0.4140461
28	0xbee73263	-0.4515563
29	0x3e013e40	0.12621403
30	0x3e48f11f	0.1962323
31	0x3ebf5a96	0.373738
32	0xbd55ddaf	-0.052213367
33	0x3c13a36f	0.009011134
34	0xbd82e2b2	-0.06390895
35	0x3d35c1b5	0.044374187
36	0x3cbaf3a8	0.022821262
37	0xbc2f342a	-0.010693589
38	0xbdda7fb2	-0.10668887
39	0x3da66a65	0.08125762
40	0x3c043f7b	0.008071776
41	0xbd0a8eec	-0.033827707
42	0xbd163f7f	-0.03668165
43	0x3cc5511e	0.024086531
44	0x3c6fb96b	0.014631609
45	0x3c456665	0.012048339
46	0xbb02d394	-0.0019962536
47	0xbf414cc4	-0.7550776
48	0x404611b5	3.0948308
49	0xc1852b58	-16.646164
50	0xbf140f50	-0.57835865
51	0x3fb3439c	1.4005008
52	0xc025ecd4	-2.5925798
53	0x41812653	16.143713
54	0xbf28254b	-0.65681905
55	0xbd5c31db	-0.053758483
56	0x3fa0c5ba	1.2560341
57	0x3f8d3ece	1.1034791
58	0x3e252d65	0.16130598
59	0x3e8f0ea5	0.2794086
60	0x3c3b16f8	0.01141905
61	0x3f0c519a	0.54812014
62	0x3f1249a2	0.57143605
63	0xbe5c4e3d	-0.2151422
64	0xbf6fec95	-0.9372037
65	0xbef28028	-0.473634
66	0xbfa55dc5	-1.2919241
67	0x3f2af255	0.6677602
68	0xbf44576d	-0.766959
69	0xbfd63f67	-1.6738099
70	0xbfc20956	-1.5159099
71	0x3f465623	0.77475184
72	0x3f791709	0.97300774
73	0x3fe8a6e0	1.8175926
74	0xbe49fdfe	-0.19725797
75	0x3c1424ad	0.009041947
76	0x3e4cdcfc	0.20006174
77	0x3f99afdf	1.2006797
78	0x3f000000	0.5
79	0x3f1995d0	0.5999422
80	0x3e1993ae	0.14997742

onnx::Div_25 f4 [1, 81]
0	0x3fa20b11	1.2659627
1	0x3f84c2e5	1.0371977
2	0x3f7d5044	0.989506
3	0x3e9bff05	0.30468002
4	0x3edb4b18	0.4283073
5	0x3ed2b78a	0.41155654
6	0x3e8918c6	0.26776713
7	0x3e892a95	0.267903
8	0x3e6172e3	0.22016482
9	0x3e4a6e4f	0.19768642
10	0x3e98cdba	0.29844457
11	0x3e76a44f	0.24086116
12	0x3f0265f5	0.50936824
13	0x3f1f4ea8	0.62229395
14	0x3ef00947	0.46882078
15	0x3e9b123a	0.30287343
16	0x3f1f5a92	0.62247574
17	0x3f1f438f	0.6221246
18	0x3e0044f4	0.12526304
19	0x3e6684c3	0.22511582
20	0x3ea7ba88	0.327595
21	0x3ecb21b7	0.3967416
22	0x3e9587fb	0.29205307
23	0x3e507253	0.20356111
24	0x3eab96b9	0.3351343
25	0x3ef054ba	0.4693964
26	0x3ea48b40	0.3213749
27	0x3ecbfbb6	0.39840478
28	0x3f0f46f6	0.5596765
29	0x3e81f3b1	0.25381234
30	0x3e999cae	0.3000235
31	0x3eea0328	0.45705533
32	0x3e4937df	0.1965022
33	0x3fc6020c	1.5469375
34	0x3fd7e36a	1.6866276
35	0x40027ddf	2.0389326
36	0x401fe8b5	2.4985783
37	0x3fc79f85	1.5595556
38	0x3fdad3af	1.7095851
39	0x400a9e17	2.165899
40	0x401c5683	2.4427803
41	0x400f3437	2.237562
42	0x40111d37	2.2674081
43	0x3fe1d35d	1.7642628
44	0x40294079	2.64456
45	0x4027e474	2.6233187
46	0x402c041c	2.6877508
47	0x41881c60	17.013855
48	0x417e1fe5	15.882787
49	0x41b4ca03	22.598639
50	0x40e5ff76	7.187434
51	0x4186c27b	16.844961
52	0x417f069b	15.939113
53	0x41abc07c	21.468987
54	0x40ee9cd0	7.456642
55	0x40d35470	6.6040573
56	0x40ed5dc5	7.4176965
57	0x40f72bae	7.724082
58	0x3fae31c9	1.3608943
59	0x3fc91858	1.5710554
60	0x3f8993c1	1.0748216
61	0x3fd46955	1.6594645
62	0x40003763	2.0033805
63	0x40073e01	2.1131594
64	0x400f036d	2.234584
65	0x3fcf8baf	1.6214503
66	0x3ff4a255	1.911204
67	0x400194a6	2.0246978
68	0x40091731	2.1420405
69	0x400cb935	2.1988041
70	0x4020e6b1	2.5140803
71	0x400a0b5a	2.1569428
72	0x400da079	2.2129195
73	0x4029dadb	2.6539829
74	0x3ff32ff4	1.8999009
75	0x3f247472	0.6424018
76	0x3f422051	0.7583056
77	0x3e76b5e3	0.24092822
78	0x3c23d70a	0.01
79	0x3d8abe68	0.06774598
80	0x3d1f3554	0.038869217
