robot_controllers/config/pointfoot/SF_TRON1A/policy/policy.onnx (onnx, 965381 bytes, 10 tensors)

actor.0.weight f4 [512, 145]
000000 26 ce 17 be bc ae 78 bb f1 55 c8 bc ef c7 3d 3d
       -0.14824733 -0.0037945947 -0.024455043 0.04633325
000010 bb b5 ea 3d 45 46 bc bd 88 93 9e 3d b0 b6 5d 3e
       0.114604436 -0.0919309 0.07742983 0.21651721
000020 f2 20 2e 3d d8 86 ce bd f6 40 1f bd ce 0a 1e 3c
       0.042511888 -0.10084313 -0.03888031 0.009646131
000030 19 13 04 3e 51 f1 a7 bd c5 e6 4f 3e 70 39 57 be
       0.1289791 -0.08200324 0.20302875 -0.21018004
000040 05 6f 9c 3c a7 f3 30 3b 00 62 15 be 66 e3 23 be
       0.019095907 0.0027000697 -0.14588165 -0.16004714
000050 70 aa 2b 3e 0a fa 2b be 69 10 6b 3b 45 f8 bf bc
       0.16764235 -0.16794601 0.0035867936 -0.023433814
000060 2c cc 11 be cc fd b1 3e ea 6f 41 3e 4e 87 b7 bd
       -0.14238042 0.34763944 0.18890348 -0.08961354
000070 0a 5e ab 3d 92 52 3a bc 37 8c 48 bd 5e 63 b7 bd
       0.08367546 -0.011372225 -0.048961844 -0.089545
000080 42 a0 69 3d e7 49 66 bd b6 b8 ec 3c f9 0b 80 bd
       0.0570376 -0.056222823 0.02889667 -0.062522836
000090 ce e2 f2 bc be 7f 14 3d 11 61 94 3b 3e 6a ab bd
       -0.029649165 0.036254637 0.004528173 -0.083698735
0000a0 0b ed 17 be c8 f2 71 bd 25 e3 17 bc 07 fb ac bc
       -0.14836518 -0.059069425 -0.009270464 -0.021115793
0000b0 9c 57 78 bd 4c b1 09 3e dd 7a 14 bc 9d a3 8b 3d
       -0.060630426 0.1344654 -0.009062496 0.06818316
0000c0 f4 aa ad 3c fc 3e e2 bc b7 b1 72 bd 35 02 c7 3c
       0.02119968 -0.027617924 -0.059251513 0.024293045
0000d0 d8 e8 bf 3d 0b 22 0d be 36 7c 3b be ed a7 50 3c
       0.09370583 -0.13782518 -0.18309101 0.012735349
0000e0 9c 5b ce bd 6c 12 ee bd 6b 52 0b 3e 08 09 fe 3c
       -0.10076067 -0.116246074 0.13605659 0.031010166
0000f0 9b 4f dd bc ec a3 39 be 7a e1 fb 3c c3 0e dd bd
       -0.027015498 -0.18128937 0.030747164 -0.10793831
000100 64 8c 96 bd 15 e8 c4 bd a2 4c cb bd 24 6e 1f bd
       -0.07350996 -0.09614579 -0.09926726 -0.038923398
000110 7f 1e 1a be ea d9 77 3c 53 bf 39 3d 47 6e c0 3d
       -0.15050696 0.015127638 0.045348477 0.09396034
000120 8f e1 72 3d 79 57 50 bd a6 db 53 bd 11 a5 e0 3d
       0.05929714 -0.05086467 -0.051723145 0.10968984
000130 fa 46 26 3e f4 2f d2 3c a4 50 f5 3c 19 b7 8a bd
       0.16238013 0.025657631 0.029945679 -0.06773204
000140 8a 96 c2 3c db aa 60 bd 09 3f 2b bc 9a ca 32 3c
       0.023753423 -0.05485044 -0.0104520405 0.010912562
000150 40 d8 1d bd fb b4 1c 3d 34 0d e7 3d 93 68 7b bd
       -0.03853631 0.038258534 0.11281815 -0.061379027
000160 4d cf 91 3d 47 53 9d bc 46 6d 22 bd ab 3d 8b 3d
       0.071196176 -0.019204749 -0.039654993 0.067988716
000170 0c b2 17 bd 93 a0 0d bc a3 f7 58 3d 15 03 9d 3d
       -0.037035033 -0.008644241 0.05297054 0.076666035
000180 52 c0 dc 3c 9c e1 11 be d7 3d 76 bc 66 86 cd 3c
       0.026947174 -0.1424622 -0.015029392 0.0250885
000190 19 62 61 bd 4f ba 7f 3b 27 0d be 3d d7 f3 36 bc
       -0.055025194 0.003902096 0.09279852 -0.011166534
0001a0 8b 61 ca 3b 78 8c 45 3d 08 7b e2 bc 79 7e ba bc
       0.006176179 0.048229665 -0.027646556 -0.022765385
0001b0 7d d0 dd bc 0e 8f 2d bd 32 7c b5 ba 22 f1 06 3d
       -0.027076954 -0.042372756 -0.0013846217 0.032944806
0001c0 e9 1d ab bd 32 f4 b2 bc 6b 82 f5 bc 13 9e 1d bd
       -0.08355314 -0.021844957 -0.029969415 -0.03848083
0001d0 15 06 82 3c 8f cb d9 3d cd a6 5c 3c d5 5e 81 bd
       0.01587204 0.10634529 0.013467503 -0.06316916
0001e0 31 66 f0 3b 0f b9 04 bc 00 6d 9c bd 84 54 c7 3c
       0.007336401 -0.008100762 -0.076379776 0.024332292
0001f0 ab bc 99 bd 2c 8e dc bc 73 44 57 bd a8 5e 99 3d
       -0.07506689 -0.026923262 -0.052555513 0.07488757
000200 91 db 10 3d 78 1a 0f bd bb ce 40 3d fe 1e a7 bd
       0.035365645 -0.034937352 0.047072154 -0.08160208
000210 a2 8a 3e bd 68 f1 65 3d 1e 20 bc 3d 12 94 9a bd
       -0.04651893 0.056138426 0.09185813 -0.075477734
000220 c7 b6 58 3d df dc 3a 3c 10 fd 51 bd 0a 77 ef bc
       0.052908685 0.011405199 -0.05126673 -0.029231567
000230 1b 42 7c 3d da 35 08 bd d1 4d 22 bd 14 99 4b 3d
       0.06158648 -0.03325448 -0.039624993 0.049706534
000240 c8 c1 d0 bc 95 1a 8d 3d c0 f5 a1 3d 77 30 ce 3d
       -0.025483027 0.06889836 0.07908201 0.10067838
000250 8b 9e 5d 3d a3 93 38 3d ec 56 ca 3d 90 84 27 be
       0.054106276 0.045062672 0.0987986 -0.16359162
000260 ba 09 81 3e fb bc 23 be fa c7 34 3d 97 5f 93 bd
       0.25202733 -0.15990059 0.044136025 -0.07195967
000270 5c d4 c0 bd d9 b2 a4 3d d1 81 68 bd e8 90 a6 3d
       -0.09415504 0.08041925 -0.056764428 0.081331074
000280 76 2e 22 3e 1f 6f 55 bd 8e aa 40 3e a7 82 bf 3d
       0.15838036 -0.052107926 0.18815061 0.09351092
000290 65 b8 8b 3d 8e 4d af be 63 c2 f4 bd fe db a0 bc
       0.0682228 -0.34238857 -0.11951139 -0.01963615
0002a0 dc 18 1e be ad 87 e0 bd 14 c1 ca bd 41 7b c0 bd
       -0.1543917 -0.10963378 -0.09900108 -0.09398509
0002b0 b4 35 ce 3d d2 1a 1d 3e e4 ee 19 bd c0 f3 90 3d
       0.10068837 0.15342262 -0.03758134 0.070777416
0002c0 08 04 ce 3b ba 49 4b 3d 38 f1 39 be d4 7f 39 bc
       0.0062871017 0.049630858 -0.18158424 -0.0113219805
0002d0 e0 73 6d bc b1 94 38 bd 56 7d f5 bc 21 6a bf 3d
       -0.014492959 -0.04506368 -0.029966991 0.09346414
0002e0 d0 43 0b bd a6 e7 43 bd 45 68 eb 3d b0 8f 0e 3c
       -0.034000218 -0.04782834 0.11494497 0.00870125
0002f0 a1 4e d6 3c 1a b3 34 3d 2a b1 7a 3d a3 33 09 3d
       0.02616054 0.044116117 0.061204113 0.03349651
000300 75 72 a5 bd 6a c1 ca 3d 99 58 2f 3c 57 96 2c bd
       -0.080784716 0.09900172 0.010702276 -0.042135563
000310 f1 d1 c0 bd 0d 3f 06 3e b7 ee c1 3a 51 d6 d2 3d
       -0.09415043 0.1310999 0.0014795874 0.10294784
000320 6f 72 f2 bd d6 cc 1a be e1 e6 37 3d 22 6f 81 bd
       -0.11838233 -0.15117201 0.044897918 -0.06320025
000330 c5 b7 05 bc dc a4 c6 3d cc 91 52 bd 4a d3 13 bd
       -0.00816149 0.09699413 -0.051408574 -0.036090173
000340 49 f1 23 3d b9 0d aa 3d 47 0c 9f 3d c0 ea bb bd
       0.04002503 0.08303399 0.077660136 -0.091756344
000350 e1 ca b7 bc 03 cc 8d 3d a4 3d 19 bc 94 88 2e 3e
       -0.022435607 0.06923678 -0.009353075 0.17044288
000360 b2 5a 08 bc 15 0b 7a bd 30 8a d1 bc d0 8a 30 3d
       -0.008322405 -0.061045725 -0.025578588 0.043101132
000370 18 8a 57 3d 84 5c 62 3e a0 9f 1a be 49 f9 0f bd
       0.05262193 0.22105604 -0.15099955 -0.035149846
000380 5b fc 83 bd 83 6e 1f bd 96 67 cc bd df 8e 69 3d
       -0.06444617 -0.03892375 -0.09980695 0.057021018
000390 d7 8c bf 3a 2b b2 3e 3d a8 b6 02 bd 27 d0 12 3d
       0.0014614117 0.046556633 -0.031912476 0.03584304
0003a0 98 19 03 be 58 df fc 3a 68 fa 6a bc 57 57 57 bd
       -0.12802732 0.0019292636 -0.014341928 -0.05257353
0003b0 86 a8 23 3b 64 74 b3 bc ac 11 f2 bb 25 57 71 3d
       0.0024972274 -0.021906085 -0.0073873606 0.058920998
0003c0 73 0e 5b bd 15 24 e5 bd 5b 39 9c 3d ad f1 a7 bc
       -0.053480577 -0.11188523 0.07628127 -0.020500982
0003d0 46 4f 8e 3b a6 3d cc bd cf 1a b4 bb 13 f4 55 bc
       0.004342946 -0.09972696 -0.00549636 -0.01305868
0003e0 bf 57 48 3c ad c5 61 3d 7f 6b e9 bc 5a 36 86 ba
       0.012227952 0.05512016 -0.028493641 -0.0010239587
0003f0 df 8b 0a be c1 b1 03 bb 2d 90 a4 bd fe 67 ba ba
       -0.13529919 -0.0020094963 -0.08035312 -0.0014221666

actor.0.bias f4 [512]
000000 99 11 82 bb ef ad 2d 3d 41 b1 b4 bd d9 44 50 3c
       -0.003969383 0.042402204 -0.08822871 0.012711727
000010 f3 12 bd bd 16 26 14 be 91 e3 73 bd 9d 34 9e 3d
       -0.0923213 -0.14467654 -0.059543196 0.07724879
000020 d4 e8 a0 3a 75 6d 53 bd 68 28 ca bc fb c0 46 3d
       0.001227642 -0.05161806 -0.02467747 0.048523884
000030 4b 53 d9 3d e1 99 8e bd 32 cc 18 be ba 16 09 bd
       0.1061159 -0.06962944 -0.14921644 -0.03346894
000040 7c 84 2f 3d 2e d2 a5 3d 76 ec 41 be 0b ad a4 ba
       0.042850956 0.08096729 -0.18937859 -0.0012563778
000050 c3 57 1b 3d f3 be 79 3d 6d d4 ba bd af 5a 9f bc
       0.037925493 0.06097312 -0.09122548 -0.019452421
000060 e4 e3 99 3d 3d 25 00 bd f5 cb b8 bc ff 5e 72 bd
       0.0751417 -0.031285513 -0.022558192 -0.059172627
000070 ee c0 8b bc 74 28 c9 3d b7 9c aa bd e5 75 d4 3b
       -0.01705977 0.09822169 -0.08330672 0.0064837807
000080 43 05 cc bc 5e 01 4b 3d 45 a0 8e bc e7 4d 38 3e
       -0.024904853 0.04956185 -0.017410407 0.17998467
000090 96 8b 72 3d a1 65 af 3d ba de 40 3d 4d fa 36 be
       0.05921515 0.08564306 0.04708741 -0.1786892
0000a0 12 54 be 3d 03 89 b9 bd 5a 51 36 3d 61 23 30 be
       0.09293379 -0.09059336 0.044511177 -0.17200996
0000b0 00 ee e4 bc b8 b5 8a 3d bc dc c0 3c cf 08 a2 3d
       -0.027945518 0.06772941 0.023542754 0.07911836
0000c0 8c 10 f4 3a ec 22 20 be 3a 80 0c bb 14 e3 a6 3c
       0.0018620654 -0.15638322 -0.0021438734 0.020371951
0000d0 ee 99 0b 3d 12 9f 4f 3d e8 b3 05 bd 2a ae b5 3d
       0.034082346 0.05068881 -0.032642275 0.0887111
0000e0 ff d5 66 bd 57 c8 e1 bd aa 7b 33 3c b7 83 06 3d
       -0.056356426 -0.1102454 0.010954777 0.032840457
0000f0 73 6e 32 3d 45 1f 6a bc bf 08 95 ba 1e 11 1a 3e
       0.043562364 -0.014289682 -0.0011370404 0.15045592
000100 32 63 61 bd 84 65 9b 3d ad 5a 6c bd 53 67 91 bc
       -0.05502624 0.07587722 -0.057703663 -0.017749464
000110 2a de 83 bd d4 99 dd 3b 0d cc 2c 3d 52 6e b1 bd
       -0.06438859 0.0067627225 0.042186785 -0.0866362
000120 c9 4b 82 bd c8 01 dd bd b2 7b 4d 3d 72 dd 8c bc
       -0.06362111 -0.10791355 0.050166793 -0.017195437
000130 4a 3e ea bb 8c c4 c7 bd 82 35 42 b9 f3 06 61 bd
       -0.0071485387 -0.09754285 -0.00018521215 -0.054938268
000140 6e 79 1c bd 9d 4b 98 bb 34 55 24 bd ad 1d b4 3d
       -0.038201742 -0.0046476857 -0.04012032 0.08794723
000150 a4 37 07 3d e2 56 b4 bc cc 40 cf bd 81 d7 80 bd
       0.033012047 -0.022014085 -0.10119781 -0.06291104
000160 ae ed 19 be 95 88 a3 bd 52 82 86 3d 22 5a 4f bc
       -0.15032074 -0.07985035 0.065678254 -0.012655767
000170 5d 49 e6 bd 92 bc 85 bc 63 b9 82 bd af aa 46 3c
       -0.11244462 -0.016325269 -0.06383016 0.012125655
000180 5e d0 65 3a c2 12 7f bb df 07 0a bd 99 ff 40 3c
       0.0008766706 -0.0038921093 -0.033698913 0.011779689
000190 a5 71 95 bd 69 cd e7 bd e6 75 3e bd d6 d0 9a bd
       -0.072970666 -0.11318476 -0.046499155 -0.075593635
0001a0 ab ae 14 be 80 1e ad bc 33 f8 bc 3c f4 d3 25 be
       -0.14519756 -0.021132708 0.02306757 -0.16194135
0001b0 8c a7 e3 3d 63 f6 3b bd c4 8d a5 3c ef 19 bd bd
       0.111159414 -0.04588927 0.0202092 -0.09233462
0001c0 03 5a be bc 0f 42 cb bc 43 ef 38 bc 73 b7 72 bd
       -0.02323628 -0.024811773 -0.011287513 -0.059256982
0001d0 52 d7 40 3d 39 7e be bd 91 c6 55 3d 05 9f 8b 3c
       0.047080345 -0.09301419 0.05219132 0.0170436
0001e0 0c 67 f1 bd 8b 25 13 bd 55 2b 87 3d c7 94 f2 bd
       -0.11787233 -0.035924476 0.06600062 -0.11844783
0001f0 27 5a 2a 3d 80 1f 02 be 6c d3 f1 bd b1 de bb 3d
       0.041589882 -0.12707329 -0.11807904 0.091733344
000200 7a f9 31 be 7d 68 2c 3d 7f e8 1d be f4 65 82 be
       -0.17380324 0.042091835 -0.15420721 -0.2546841
000210 69 4a 5b 3d 40 ac 1e be a0 66 fb bc ff 1b 1b 3e
       0.05353776 -0.15495396 -0.030688584 0.15147398
000220 b4 d7 c7 bd 8f e1 e4 bd 41 30 84 bd 4e 84 91 bd
       -0.09757939 -0.111758344 -0.06454516 -0.07105313
000230 04 c0 c9 bd f1 b0 8e 3d 94 e5 55 3d 6d 17 a2 ba
       -0.09851077 0.06967343 0.052220896 -0.00123666
000240 f7 da ee bd 67 a0 71 3d f4 bc 2e bd da 42 51 3d
       -0.11662858 0.058990862 -0.04266067 0.051089145
000250 da d8 19 be 4c 8e 94 3b 74 5f 1f bb 32 2e bb bd
       -0.15024129 0.0045335647 -0.002431837 -0.091396704
000260 21 ee 1d 3c 2e 2f 1b be 62 94 a9 bd 3a 3e 96 bc
       0.009639294 -0.15154716 -0.08280255 -0.018340219
000270 aa bd a0 bd 86 43 bd bd 10 c7 31 be 24 71 5d 3d
       -0.078486755 -0.09241395 -0.17361093 0.054062977
000280 36 e4 6f bd 94 56 2a bd d4 51 d4 bd 55 95 2c 3d
       -0.05856725 -0.041586474 -0.1036717 0.0421346
000290 aa 62 1c be 6b d7 bd bb 38 ad ce 3a 16 0a a1 bd
       -0.15272012 -0.005793502 0.0015768176 -0.07863252
0002a0 d8 9e 03 be 1b 45 b4 3b 43 d2 00 3e 37 1a a0 bd
       -0.12853563 0.005501402 0.12580208 -0.078175
0002b0 e6 24 c3 3d 0f b3 29 be 4d 2a 0d 3d 77 4c 3b be
       0.09528522 -0.16572212 0.03446417 -0.18290888
0002c0 b7 45 95 bb d4 c2 b3 bd 71 f7 6a bd 28 45 e6 3c
       -0.00455543 -0.08777395 -0.057364885 0.028109148
0002d0 09 57 90 3d 98 88 16 ba 97 de 19 be 5f ec 2a 3e
       0.07047851 -0.00057424 -0.15026318 0.16691731
0002e0 6a 10 f2 bc 5b 3b 43 bd 54 c8 07 be 3b bf df 3d
       -0.029548842 -0.047664028 -0.13260013 0.10925146
0002f0 c8 0e 34 3d 71 ee a3 bd 7d 5b 8e bd e6 7f 8a 3d
       0.04395941 -0.080044635 -0.06951044 0.06762676
000300 c0 e3 ba 3d 39 b7 15 be 00 14 de 3d 7c aa 42 be
       0.09125471 -0.14620675 0.108436584 -0.19010347
000310 c1 f5 97 3d 7e cc fd 3c 0c 63 08 bd cd 21 e3 3d
       0.07419921 0.030981299 -0.033297583 0.11090431
000320 ae 4f 36 3d 3a ee 97 bd 02 3f 58 bd ce 8a 06 3c
       0.044509582 -0.07418485 -0.052794464 0.008211805
000330 95 2d 8a 3d 78 ea 4a bd e6 40 91 bd 70 5c 9a bd
       0.06746975 -0.049540013 -0.070924565 -0.07537162
000340 b6 a6 e4 3d 62 71 98 bd 6a b8 ce 3d 15 26 1a 3a
       0.1116461 -0.07443501 0.10093768 0.00058803085
000350 0f e2 e9 bb d0 a3 47 ba b7 5e ed 3d 26 88 13 be
       -0.007137544 -0.00076156575 0.11590331 -0.14407405
000360 c4 0e 2a be cb 06 b8 bd 83 7f 52 3c bf fb f5 bd
       -0.16607195 -0.08985671 0.012847784 -0.120109074
000370 65 38 13 3d 7e b3 cf bd 22 13 47 bd ae be 93 bc
       0.035942454 -0.10141657 -0.04860223 -0.01803526
000380 91 f0 21 3d 9b a3 a8 bd f7 df b3 3d dd 3f d9 bd
       0.039536063 -0.0823433 0.08782952 -0.10607884
000390 71 70 96 bd 4c ef 2a bd 2a 6f 20 3e 7e 37 d4 bd
       -0.07345665 -0.041732118 0.15667406 -0.10362147
0003a0 28 45 f0 bb a8 bb c8 3c 40 92 94 bd 6c e5 57 bd
       -0.007332463 0.024503544 -0.072544575 -0.052709028
0003b0 b0 0c 8e bd 79 19 24 bd 54 29 30 bc 3a 84 eb 3c
       -0.06936014 -0.040063355 -0.010752041 0.028749574
0003c0 c2 37 02 be ba 1f ee 3d cf cf 73 bd c2 17 a3 bd
       -0.12716582 0.11627145 -0.059524354 -0.07963516
0003d0 d7 64 4d 3d 73 6d 49 bc 27 4d 16 be d7 b0 33 3d
       0.050144996 -0.012294161 -0.14677869 0.04386982
0003e0 e5 db c4 3d 0c 34 83 3d 4f 3a ca bc b7 62 ed 3d
       0.09612254 0.064064115 -0.024686007 0.11591094
0003f0 79 5d 85 3c ad 2d 1b bd 34 7c 27 bd c7 93 57 bc
       0.016279923 -0.037885357 -0.040889934 -0.013157791

actor.2.weight f4 [256, 512]
000000 8c d5 30 3d 56 86 f5 bc a7 9b d5 3c 46 e4 8a bd
       0.043172404 -0.029971283 0.026075197 -0.06781821
000010 8d 86 95 bd 60 b2 9b bc e0 91 a5 bc 94 95 55 3d
       -0.07301054 -0.019005954 -0.02021116 0.052144602
000020 06 2c a7 3b 75 5c be bb 5b 32 ce 3c aa 86 32 3d
       0.0051016835 -0.0058093616 0.025170496 0.043585457
000030 69 21 78 3d cb 3a 95 ba 30 dc 8c bb f6 26 e2 3c
       0.060578737 -0.001138532 -0.0042987093 0.027606469
000040 1c 5b 75 3c c9 6a 13 3d ee 76 e8 bd 57 45 5a 3c
       0.014975335 0.03599051 -0.11350809 0.013322196
000050 e9 c7 38 ba e8 ab ae bc 78 4c 32 ba dc 72 32 3b
       -0.0007048832 -0.021322206 -0.0006801556 0.0027229106
000060 76 63 6b bd 9e 6a 89 bd 5f 8b 3f bd 5c 50 2d bd
       -0.0574679 -0.06709789 -0.046763774 -0.042312965
000070 9a 41 2f bd bd ab b5 3d 81 ed 0a 3c df a8 b1 3b
       -0.042787172 0.08870647 0.008479477 0.0054217423
000080 8c 58 66 bd 0d a5 5a bd 6d 95 84 bc e4 ec b8 bb
       -0.05623679 -0.05338006 -0.016184533 -0.005643474
000090 a9 e4 f0 bc 28 e5 43 bd 13 7e 58 3d 0e ec 7c bd
       -0.029405909 -0.047825962 0.05285461 -0.061748557
0000a0 fb 36 92 3b 55 a2 9e bc 93 e9 8e bb 2a e6 0f bd
       0.0044621206 -0.019364515 -0.0043613403 -0.03513161
0000b0 40 4e 46 3d 1e cd d3 3d 99 6b a7 bd 0e 2a 60 bd
       0.04841447 0.103418574 -0.081748195 -0.054727606
0000c0 7c b9 9a bc 94 8b b9 3d da 0a 9b 3d 3d 19 53 bd
       -0.018887274 0.090598255 0.07570429 -0.05153774
0000d0 3d 48 df 3a 4a bd 8f 3c 33 29 00 3d 23 77 c0 3c
       0.0017035078 0.017546315 0.03128929 0.023494309
0000e0 c2 28 78 bd 8b 8e 83 3d 2f df 51 3d 87 0d 16 bd
       -0.060585745 0.06423672 0.051238235 -0.036633994
0000f0 73 b4 50 3c 14 cf 5c 3d f8 b9 dd bd eb 85 31 3d
       0.012738335 0.053908423 -0.10826486 0.043340605
000100 dd c0 d3 3a 58 d0 b0 bc 33 cf 55 3d 75 28 5c bd
       0.00161555 -0.021583721 0.052199554 -0.05374952
000110 ce ab 04 bd f3 71 79 3c 54 f6 0f bd db 7c ea bc
       -0.03239041 0.0152249215 -0.035147026 -0.028623989
000120 d0 a0 02 bc 4e 0b 00 3d 4f d0 44 3d 3d dd 01 3e
       -0.007972911 0.03126078 0.04805022 0.12682052
000130 9a 39 17 bd ff ab e5 bc 1f 7b 46 bd 04 07 7b 3d
       -0.036920168 -0.028036116 -0.04845726 0.061285987
000140 ac 85 0c 3d fe a7 56 3d d5 0c 77 bd de 2f 34 3d
       0.034307167 0.052406304 -0.060314972 0.043990962
000150 88 32 03 3c b1 b7 15 bc 9e c1 9e 3c 49 e3 54 3d
       0.008007653 -0.009138034 0.019379433 0.05197457
000160 36 be 4c 3d e2 6f 0d bd b7 1f 13 3c 64 0f 81 bd
       0.049986087 -0.034530528 0.008979729 -0.06301764
000170 48 c4 20 3d 1c ff 45 3b 19 a9 43 3d 97 9d aa 3c
       0.03924969 0.0030211871 0.047768686 0.020827098
000180 85 ea 8c bd 35 0d 2b 3c de ad a1 bd e1 e9 f7 3d
       -0.068806686 0.0104401605 -0.07894491 0.12105156
000190 d5 84 95 3d e1 aa bc bd 9a 23 00 bd 1f 92 80 3c
       0.07300726 -0.0921228 -0.031283952 0.015694676
0001a0 fc 71 99 3b a0 7e 85 3d d6 ec ee bb ee 1b 1e 3d
       0.0046827774 0.065182924 -0.0072914166 0.038600855
0001b0 34 7b 88 bc b8 c3 fc bc 00 64 de b9 0b 25 4b be
       -0.01666031 -0.030855045 -0.00042417645 -0.1983835
0001c0 4d 9f 75 3d 3c d5 55 bd 19 41 11 bd 14 bf d4 3d
       0.059966374 -0.05220531 -0.035462473 0.10388008
0001d0 ea b7 93 bd b1 fa 61 3d c8 fb f9 3c 16 c0 fd bc
       -0.07212813 0.05517072 0.030515566 -0.030975383
0001e0 4b 3c d6 3b 4e 7f b3 bc 42 13 d0 3c 15 2c 48 3d
       0.006537949 -0.02191129 0.025399808 0.048870165
0001f0 e3 54 d3 bb 5f 07 39 bd d7 2b ca bc 1f b8 fd 3b
       -0.0064493283 -0.045173045 -0.024679108 0.007742896
000200 d2 b9 20 bd 9d 32 29 3d 52 21 45 3d c3 9d 4f 3d
       -0.039239712 0.041308034 0.04812748 0.050687563
000210 88 09 dd 3d 81 69 07 3d 17 db 7f bd cc 02 1a 3d
       0.107928336 0.0330596 -0.0624648 0.037600324
000220 23 0e ff 3d eb c8 c2 3d b8 3e 54 bc b8 80 0e bd
       0.12453868 0.09510978 -0.012954406 -0.034790725
000230 30 e5 33 3d 2e ce c1 3d 60 b9 f6 3d eb ad 3d 3c
       0.043919742 0.09463154 0.12047076 0.01157711
000240 a1 97 76 3d d4 27 72 39 b1 4e 86 bd bf d4 7b 3d
       0.0602032 0.00023093756 -0.06557978 0.061482187
000250 9d 98 1c bd ab 8b c5 bc 9c f8 b9 bc a0 b3 be 3c
       -0.03823148 -0.02411445 -0.022701554 0.023279011
000260 e9 6a 5c 3d 93 e5 92 3b 2b a2 34 bd 1a ee 00 3c
       0.053812895 0.004482934 -0.044099968 0.007869268
000270 23 07 ac bd 6f 35 22 bd a3 2a bf bd 45 d3 92 ba
       -0.08399799 -0.03960174 -0.09334304 -0.0011201879
000280 72 93 05 bd eb 71 05 bc c2 2a 3f 3e 75 f7 2e 3c
       -0.032611318 -0.008144836 0.18668655 0.010679116
000290 ae a1 13 bd ed ee 8a bc c0 3b ab bb 41 de d2 3c
       -0.03604286 -0.016959632 -0.0052256286 0.025740745
0002a0 14 d5 1d 3c dd b5 ec bc cf 67 76 3d f2 4b b1 3d
       0.009633321 -0.028895313 0.060157593 0.086570635
0002b0 2e c6 2c 3d 82 63 ae bc 94 48 92 3d ba 15 1d ba
       0.042181186 -0.021287683 0.071427494 -0.0005992312
0002c0 bf ea 4c 3d 4d 89 83 bd 5b 9b a9 bc 23 9f dc 3c
       0.05002856 -0.064226724 -0.020703962 0.026931351
0002d0 9c c9 77 3d 2a ab ac bc d6 e4 d3 bb 6a 2d 0e bd
       0.060495004 -0.021077711 -0.0064664884 -0.03471128
0002e0 f0 69 c2 bc d7 ed e5 bc a8 68 42 bb 56 78 69 bd
       -0.023732156 -0.028067512 -0.002966443 -0.056999527
0002f0 9f 9e b9 bc b8 29 6c ba 58 7e 95 bc 2e 6a c6 bc
       -0.022658644 -0.0009008902 -0.018248722 -0.024220552
000300 28 77 e0 bc 13 78 4a 3c 3c e2 35 bd 57 4a 03 bd
       -0.027400568 0.0123577295 -0.044405207 -0.032053318
000310 0a 30 9b 3d e9 de aa ba ed f1 bd bc 6f 14 83 3c
       0.07577522 -0.0013036403 -0.023186648 0.016000954
000320 f2 57 64 3d 95 60 25 bd af 5f aa 3d 04 ad 63 3d
       0.055747934 -0.04037531 0.083190314 0.055584922
000330 0c 1a dc 3c ca cd 35 3d 92 76 15 3c 25 62 ce bc
       0.026867889 0.04438571 0.009122508 -0.025193283
000340 f0 27 c8 3c 17 2e be ba 27 75 52 bd 50 46 95 bd
       0.024433106 -0.0014509585 -0.051381256 -0.07288802
000350 95 59 01 bd 86 6d 5e bd 49 1d b1 3c 7c 37 96 bd
       -0.031579573 -0.05430367 0.02162041 -0.073348016
000360 df 8c 01 bd 7f 07 34 bc cd 01 18 bd f5 fa 0b 3a
       -0.031628486 -0.010988115 -0.037111092 0.0005339825
000370 76 a0 9e 3c c5 f9 9c bd 1f 15 3b bd b5 53 40 3c
       0.019363623 -0.07664827 -0.04567444 0.011738707
000380 bf d7 7a bc 47 d9 31 bd 8d 45 70 3d 6b 0e c9 bd
       -0.015310227 -0.043420102 0.05866008 -0.09817203
000390 59 5b 11 bd 62 20 28 bd fc 4f 30 bd 57 1d 2c bd
       -0.035487507 -0.041046508 -0.04304503 -0.04202017
0003a0 1c ed b5 bc 59 6e 2c bd 22 f4 7f 3c 89 65 26 3d
       -0.02220779 -0.042097423 0.015622171 0.040624175
0003b0 06 0c c6 bb b7 d1 ea 3c 8c 9b 78 3c 10 3d 8f 3d
       -0.006043914 0.028664453 0.015173804 0.069940686
0003c0 8f 05 ab bc c5 b5 6f 3c a5 a8 44 bc 96 a9 b9 3c
       -0.020876674 0.01463074 -0.012003099 0.022663873
0003d0 7a 03 9b bc be 68 f1 bc b7 0b 04 3d ca 2b f1 3b
       -0.018922556 -0.02946889 0.032237735 0.0073599564
0003e0 e6 9d 87 bb 20 02 60 bc ad 9f 99 3d f8 84 d0 3d
       -0.004138696 -0.013672382 0.07501159 0.10181612
0003f0 20 56 c3 3c 25 f7 5d bc 34 ed 83 bd 0f 9d a2 3d
       0.023844779 -0.013547693 -0.06441727 0.07940113

actor.2.bias f4 [256]
000000 a5 e7 83 3d db 05 b0 3c 4a 6d 69 bd 19 15 2a bc
       0.06440667 0.021487167 -0.05698899 -0.010381007
000010 4f 8b f2 ba a4 64 82 bd f5 93 19 bc b6 7e b4 3b
       -0.0018504652 -0.06366852 -0.009373655 0.005508269
000020 50 f4 2a 3a 14 93 ba bc 48 45 ad bb cf dd 8e 3c
       0.0006521391 -0.02277521 -0.0052878 0.017439751
000030 da a8 5d 3c 50 67 ec 3c 86 bb af bd 95 d4 37 bd
       0.013529027 0.028857857 -0.08580689 -0.04488047
000040 c3 e3 61 be b9 ff 44 39 44 0e 67 bc c8 ac 08 be
       -0.2205954 0.0001878728 -0.014102522 -0.13347161
000050 4c a5 63 be 27 c0 0f 38 dd 15 1b be 73 54 dd bc
       -0.22231025 3.4272813e-05 -0.15145059 -0.027017808
000060 55 3d 8a bb 88 cf 87 bd 21 ba 5f 3c e8 2e de bd
       -0.004218737 -0.0663138 0.013655216 -0.108487904
000070 39 73 0d be df 01 2b 3b de e6 d1 bc 21 af bb bd
       -0.13813485 0.0026093645 -0.025622781 -0.091642626
000080 0f c7 62 bd 72 0f 0b be bb 83 ca bd 15 52 1f bd
       -0.05536562 -0.1358011 -0.09888407 -0.03889664
000090 37 ae 81 bd bb ab 17 3d 34 31 77 bc 8c a6 84 bd
       -0.06332057 0.03702901 -0.0150874145 -0.06477079
0000a0 40 d0 82 bd f0 d2 1f 3d c9 e9 95 bd 93 a3 ad bd
       -0.06387377 0.039019525 -0.073199816 -0.08478465
0000b0 b7 c0 7b 3d 66 fd 88 bd 92 a4 ab bd 30 20 65 bd
       0.061463084 -0.06688957 -0.08380999 -0.0559389
0000c0 0f 0a e5 bd 7d 67 02 3a b8 9f 47 3d be df 11 be
       -0.11183559 0.00049745274 0.048736304 -0.14245507
0000d0 d0 02 bd 3c 82 f9 80 bc 3e fb c6 bd 07 9c b7 3a
       0.02307263 -0.015743975 -0.097158894 0.0014008292
0000e0 38 0b 85 bd c7 f6 bf 3c f8 0d 7c bd 6d 51 a2 bd
       -0.064962804 0.023433102 -0.06153676 -0.07925687
0000f0 19 33 9d bd 54 bf e0 bb fa 9f 06 bd 7e 46 fa 3b
       -0.07675762 -0.0068587456 -0.03286741 0.007637798
000100 54 e3 63 bd 81 76 6f bd e7 b9 06 bd 10 42 af 3b
       -0.05563672 -0.058462624 -0.032892134 0.0053484514
000110 b8 82 e4 bd df e3 d0 bc cc 24 ef bd b6 4a f2 bc
       -0.11157745 -0.025499282 -0.1167694 -0.02957664
000120 8c 67 b9 bd 71 8a a0 bd b1 38 49 bd f8 b4 7a 3d
       -0.09052953 -0.078389056 -0.04912633 0.06120774
000130 08 84 12 bd e6 bd 64 bc 46 ba b3 3c f6 04 50 be
       -0.035770446 -0.013961291 0.021939408 -0.20314392
000140 62 ae 95 3c 87 51 8e bd 3f 52 8e bd 87 37 ab 3c
       0.018271629 -0.06949144 -0.06949281 0.020900501
000150 25 b7 3c bc f6 90 d3 bd 2b 22 0d be f1 cc 48 be
       -0.011518274 -0.103303835 -0.13782565 -0.19609429
000160 fa bb 29 3d d9 30 33 bd d3 fb a2 bc 18 c3 ee bd
       0.041439034 -0.043747757 -0.01989547 -0.11658305
000170 12 16 36 bd 84 cb 12 bd 1e fd 22 be 66 9c 9b bc
       -0.04445464 -0.03583862 -0.15916869 -0.018995475
000180 bd 3e 22 be 6e 4b 06 3d ce b3 ce 3c 62 7e cd 3b
       -0.15844245 0.03278678 0.025232222 0.0062711695
000190 11 d8 76 3d b9 ee 01 3d f9 2c 24 be 2c 34 9d 3c
       0.06026465 0.031721804 -0.1603278 0.019189917
0001a0 4d ec ac bd df 37 23 3d 4e 87 cb bd 02 36 82 bc
       -0.08443508 0.039848205 -0.09937917 -0.015894894
0001b0 2e 4d 73 bd af 42 84 3c 6e f7 17 3d 6b 07 64 be
       -0.059399776 0.016145078 0.0371012 -0.22268455
0001c0 f7 1a d0 bd 43 c2 a2 bc 99 bb 7b bd c5 c0 60 bc
       -0.10161393 -0.019868022 -0.061458204 -0.013717835
0001d0 d4 6e 80 3d 99 a1 53 bd 01 82 08 be bf 14 61 be
       0.06271139 -0.051667783 -0.13330843 -0.2198057
0001e0 08 80 19 bd b2 06 43 bc 59 74 06 be 18 43 df 3c
       -0.037475616 -0.011903452 -0.1313032 0.027253672
0001f0 90 8f 94 bd 93 ef 75 3c 7d 6b 40 bc 8b e4 2c 3d
       -0.07253945 0.015010732 -0.011744377 0.042210143
000200 ab 01 88 3c fc 9f 5a bd 1f c3 40 bd ff 07 20 bb
       0.016602358 -0.05337523 -0.047061082 -0.0024418829
000210 43 6c fe bc 40 33 98 3c dd 17 a6 bd 89 5e e4 bd
       -0.031057483 0.018579125 -0.0811002 -0.11150844
000220 1f 8c dc 3a 8a c4 aa 3a 91 61 77 be 8e b5 28 bc
       0.0016826427 0.0013028544 -0.24158312 -0.010297192
000230 aa 37 9e bd 29 35 ca bc f1 3a d3 bc 1e 8c 8e 39
       -0.07725461 -0.024683552 -0.025784941 0.00027188746
000240 9a 5f b9 bd 1a 16 21 be 76 66 fd 3c f8 09 08 be
       -0.09051438 -0.15731087 0.030932646 -0.13285053
000250 9a 93 0e bd 0c 4c 39 3a 8e 30 cf bd 95 ab 2c 3b
       -0.034808733 0.0007068522 -0.10116683 0.0026347388
000260 10 09 f3 bc c2 4d 67 bd 43 c8 5f bc 00 10 64 be
       -0.029667407 -0.05647064 -0.013658586 -0.22271729
000270 21 4d ca bd 7d 4d 05 bd 85 df 9e bc 5a 7d 74 bb
       -0.098779924 -0.0325446 -0.019393692 -0.003730616
000280 32 d8 4a bd c4 f2 59 bd ec 80 62 be d0 19 96 3d
       -0.049522586 -0.053210035 -0.22119492 0.07329142
000290 12 7f 2f 3c ff 4d ce bd e2 90 fe bd e9 58 95 bd
       0.010711448 -0.1007347 -0.12429978 -0.07292349
0002a0 5e b8 b2 3c b7 1f f5 bc f8 f1 bd bd 4a 4c 3a bd
       0.021816429 -0.02992235 -0.092746675 -0.04548291
0002b0 38 b8 d1 bd 89 a6 ea bd c7 b2 43 bd 0d a3 1e be
       -0.10240215 -0.11457545 -0.047777917 -0.15491886
0002c0 4c 02 1e 3d 0c 26 e6 bc 83 26 9c bc d9 45 1c 3c
       0.03857641 -0.028094314 -0.019061333 0.009538137
0002d0 fc a5 24 3d d3 d6 83 bd 95 ea 3f be 63 29 d1 3a
       0.040197358 -0.06437459 -0.1874183 0.0015957769
0002e0 0f 3f 94 3d 26 c6 45 be 2f 85 8a bd 64 b2 67 be
       0.0723859 -0.19313869 -0.06763684 -0.22626644
0002f0 32 ef 0f 3d 36 33 06 bc 36 c4 ca 39 26 7d 28 bd
       0.035140224 -0.008190921 0.0003867463 -0.041134976
000300 e0 51 c8 bd a1 c9 b2 3c d1 a4 dd 3c 4a 43 f9 bb
       -0.097812414 0.02182466 0.02705613 -0.0076068984
000310 85 be 10 bd aa 9b a3 bd 85 33 6d bd 12 05 4c bd
       -0.035337944 -0.07988675 -0.05791046 -0.049809523
000320 99 fe a2 bc 4a 96 87 bd 67 aa af bc e6 9a 86 bd
       -0.019896792 -0.06620462 -0.021443559 -0.06572513
000330 d2 05 82 bd fc bf d6 3c 3e be b6 bc 23 80 88 3d
       -0.063487664 0.026214592 -0.022307511 0.06665065
000340 e0 81 3b bd 95 66 6f bd 5c b4 ae bb 67 3a 44 be
       -0.045778155 -0.05844744 -0.005331559 -0.19162904
000350 f7 ba e2 bd cb 6b 27 3d 56 40 89 bc 9e 6f 56 3c
       -0.11070817 0.040874284 -0.01675431 0.013088135
000360 7a 21 7c 3d 3a 35 b1 bd 44 51 35 be 4e b6 88 bc
       0.061555363 -0.0865273 -0.17706782 -0.016688492
000370 ce a2 18 bd b4 ff 6c bd a7 e0 dd bd aa b0 7c 3b
       -0.037264638 -0.057861045 -0.10833865 0.0038557448
000380 93 6e 90 bd 1a 36 28 bd ac a1 d0 bd bb e9 7e 3c
       -0.0705234 -0.04106722 -0.101870865 0.015558655
000390 05 df f5 bd ec 79 87 bd 26 28 8d 3d e6 5b ea bb
       -0.12005428 -0.066150516 0.06892423 -0.0071520684
0003a0 a5 e9 11 3a 53 52 cb bd 08 fc 09 3d 28 a5 9f bd
       0.0005566127 -0.099278115 0.03368762 -0.07795173
0003b0 bc a7 d2 bd 54 88 a9 3c a5 b5 ee bd 9f d5 da bc
       -0.10285899 0.02069489 -0.1165574 -0.02671319
0003c0 9d 7d f2 bb 1e c5 26 3d a9 55 c1 bd 81 f3 77 bd
       -0.007400228 0.04071533 -0.094401665 -0.060534958
0003d0 40 56 3e bd 4d 49 67 3d b4 bc 0c bb e3 15 b8 3b
       -0.046468973 0.05646639 -0.002147478 0.0056178435
0003e0 f1 28 2c bd 8a fa d7 3c 93 18 81 bd 0b 15 c0 bb
       -0.042031232 0.026364584 -0.06303515 -0.0058618835
0003f0 60 f8 cc 3c c4 5e 88 bd 89 e2 c5 bc aa 41 81 bd
       0.025020778 -0.066587 -0.024155872 -0.063113526

actor.4.weight f4 [128, 256]
000000 21 8d fb bc e0 d5 23 3d 6b 56 da 3b 27 37 86 bd
       -0.030706944 0.03999889 0.006663134 -0.06553488
000010 91 25 3d bd 03 63 39 bd 03 65 00 3d 80 ae 18 3d
       -0.046178404 -0.04526044 0.031346332 0.03727579
000020 96 81 55 3d c8 ca 38 3d a6 4f 18 bd d8 62 69 3c
       0.052125536 0.045115262 -0.037185334 0.014244758
000030 21 78 f5 3c 2e 1c 95 bd e5 fd e4 bc 1c 7e 8b bc
       0.029964508 -0.072807655 -0.027953098 -0.017027907
000040 64 a1 20 3d 9c 3f 1e 3d 58 44 db bd 03 ca 28 bd
       0.039216414 0.03863488 -0.10706395 -0.04120828
000050 f0 fe e1 bd c1 4d 44 3d 4d 10 94 3d 71 26 8d bc
       -0.110349536 0.047925714 0.072296716 -0.017230244
000060 d3 f2 31 3d 40 95 0b 3b 82 1d 2b be bd 4d fe bc
       0.043444466 0.0021298677 -0.16710475 -0.031042928
000070 18 4a a1 b8 ff cd 66 bc 42 f3 56 bd 20 70 a0 3c
       -7.690879e-05 -0.014087199 -0.052478082 0.019584715
000080 b8 1c 9f bd 7c ca a9 bd b7 f6 89 3c 2e 24 f1 bc
       -0.077691495 -0.08290574 0.016841276 -0.029436197
000090 0e c5 f2 bc f2 f8 23 3d 93 2d 86 ba 85 7b 5b bd
       -0.029634979 0.040032335 -0.0010236971 -0.053584594
0000a0 ab a4 d6 3d 90 14 72 b9 b8 2e e8 bd 8e d3 1d be
       0.10480627 -0.00023086579 -0.11337036 -0.15412733
0000b0 87 c8 72 3c f2 75 e3 3c e6 90 2e 3d 1f 89 0b be
       0.014818317 0.027766202 0.042618655 -0.13626526
0000c0 0e fe c6 bc f3 91 82 bd b8 21 1b 3d e8 a2 03 3d
       -0.024291065 -0.06375494 0.037873954 0.03213778
0000d0 82 0f fe 3c 51 61 e4 bc 07 1f 65 3c ed 45 e0 bc
       0.031013254 -0.027878435 0.013984448 -0.027377093
0000e0 1d 45 d1 bd 55 04 9a bd d2 00 25 bd b5 be ab 3d
       -0.102182604 -0.075203575 -0.040283985 0.08385984
0000f0 f9 80 36 bd 6e 4e 08 bb f4 0d aa 3b c9 8c 9f bc
       -0.04455659 -0.00207987 0.0051896516 -0.019476311
000100 0d c6 41 3d 9e 7f 91 3c 55 58 d5 bc 40 9b 97 bd
       0.047308017 0.017761048 -0.026043097 -0.074026585
000110 8a 7b 59 3d cd 01 b6 3b fa a9 4c bd f7 3f de 3d
       0.05309633 0.005554414 -0.04996679 0.10852044
000120 62 df d3 bc c3 2d 57 3d ab 26 ea bc f9 21 ea 3c
       -0.025863353 0.052533876 -0.028582891 0.028580653
000130 73 2a 2a be 9b 16 b5 3c b1 c6 6b bd fb b4 17 3d
       -0.16617756 0.022105506 -0.057562534 0.03703783
000140 c9 cc 4e bd b7 f8 a6 bd 8e a9 56 bc f3 38 fb bd
       -0.050488267 -0.08152907 -0.013101948 -0.122667216
000150 ec 44 d4 bb af f0 9b bd 29 97 c7 3c 2a d4 31 3d
       -0.0064779427 -0.07614266 0.024364071 0.043415226
000160 d8 c7 89 3d 07 37 96 3d aa ac 8c 3d fc fd a3 3d
       0.0672757 0.073347144 0.068688706 0.08007428
000170 24 ad 8a bd 34 20 0a bd ee be 70 3d e2 a3 79 3b
       -0.06771305 -0.033722118 0.058775835 0.0038092067
000180 5d 87 66 3c 03 07 cc bc f7 c0 7e 3d aa b3 a3 bd
       0.014070359 -0.024905687 0.062195744 -0.079932526
000190 c2 30 40 3c be 66 4d 3d 16 c7 e5 3d 46 a9 0a bd
       0.011730375 0.05014681 0.11219613 -0.033852838
0001a0 a1 4d 26 bd cc da 09 bd 67 ba 90 3d f6 51 f2 bd
       -0.040601376 -0.033655927 0.070668034 -0.11832039
0001b0 89 4b 05 be 30 71 5e bc 28 22 40 bd 12 3c 05 3d
       -0.13017096 -0.013576791 -0.046907574 0.03252799
0001c0 1e ee ff 3c af 90 e4 3c be a5 04 3d 6b 59 36 bd
       0.031241473 0.027901022 0.032384627 -0.04451887
0001d0 63 11 23 3d 5f 2a 79 bd e6 27 0c 3d 25 97 b4 3d
       0.039811503 -0.060831424 0.034217738 0.08817891
0001e0 94 71 94 bd 4f 45 3e bd 01 86 ac bd 70 11 2d 3d
       -0.07248226 -0.046452817 -0.08423997 0.042252958
0001f0 f0 8d 43 bc 62 89 54 be a0 1c d1 3c da 09 4a 3d
       -0.011935696 -0.20755532 0.025526345 0.0493258
000200 46 03 91 bd 6a 6b f5 3b 4a f9 fe bc c2 8a 71 bd
       -0.070807025 0.0074896114 -0.03112473 -0.05897022
000210 7e 67 96 bc ce 6f 9d 3d 0c b0 0d 3e c9 99 fa bd
       -0.018359896 0.07687341 0.13836688 -0.122363634
000220 56 87 3e 3d 7b 4c 80 bd 16 52 ab 3c d8 29 60 3d
       0.046515785 -0.062645875 0.020913165 0.054727405
000230 1f 08 4d 3d c7 9b 1a 3c 2d 6d c6 3d 93 5d d2 bd
       0.050056573 0.009436554 0.096887924 -0.10271754
000240 c8 6f 93 bd f2 1b ef 3c 20 a3 ea bd 86 1b 8b ba
       -0.07199055 0.02918813 -0.11456895 -0.0010613061
000250 a1 b1 68 3d 05 72 69 bd 1c c6 da bd 5b 66 84 bd
       0.056810025 -0.056993503 -0.106823176 -0.06464835
000260 23 88 b1 3d 6d 6f f5 bc ea f8 82 bb bb 06 ee 3d
       0.08668544 -0.029960359 -0.003996958 0.116223775
000270 35 51 2b bd 9f 31 b0 3c 21 94 2d 3c 88 d3 68 bd
       -0.041825492 0.021508036 0.010594399 -0.056842357
000280 b7 e2 84 bc b3 3f be bd ea 70 74 3b 29 af 84 3b
       -0.016221387 -0.092894934 0.0037298747 0.004049201
000290 9c c9 b7 3c 84 90 52 bc 5a 36 82 bd 24 54 c0 bc
       0.022435002 -0.012851838 -0.06358023 -0.023477621
0002a0 9a f1 e6 3b 57 81 65 3d 77 02 35 3d 2b f4 07 3d
       0.007047844 0.05603155 0.044191804 0.03319184
0002b0 6b 7a 1f 3d a5 2c 98 3d d8 19 a3 bd 35 08 37 bd
       0.038935106 0.0743039 -0.07963914 -0.04468556
0002c0 26 9d 8f bd cb 6e 7a bb 68 2b fd bc 01 2c 6b 3c
       -0.070123956 -0.003821301 -0.030904487 0.014353753
0002d0 26 56 ab 3d d1 83 e3 3c 9c c2 15 3c 22 31 99 3c
       0.08366041 0.027772816 0.009140637 0.018700186
0002e0 2c 11 3a bc 5f 34 37 3c a4 7d 23 3d 64 2e 03 3d
       -0.011356633 0.01118192 0.039914742 0.032026663
0002f0 56 23 34 bb 25 b4 66 3d 90 dd 1a bd ac fc 18 bd
       -0.0027486882 0.056324143 -0.037808955 -0.03735034
000300 9c 83 83 3b a4 7b 54 bc c4 a4 84 ba 44 7e 3d bc
       0.004013492 -0.012968931 -0.0010119905 -0.011565749
000310 8c e4 34 bd ee 60 90 3c 74 d3 a0 3d 2d e6 55 bd
       -0.04416327 0.017624345 0.078528315 -0.052221466
000320 71 7e 34 bc a2 10 13 3e b3 d2 a5 bd c4 6c 40 be
       -0.011016474 0.14361814 -0.08096828 -0.18791491
000330 ce 7c 4e bd e0 fb 9a bd 60 f8 33 bc 9e 57 9a 3d
       -0.05041199 -0.075675726 -0.01098451 0.07536243
000340 42 6c 33 bd b5 5e 28 bd d4 72 d9 bc e7 95 8d 3d
       -0.043804415 -0.041105945 -0.026544012 0.06913357
000350 7a a8 b3 bd 80 30 32 bb 06 dc b4 bc d7 fb f6 bc
       -0.08772369 -0.0027189553 -0.022077572 -0.030149383
000360 a9 82 8c 3d bf 40 98 3d e2 cd 1f 3d ca fb 93 3b
       0.06860859 0.07434224 0.039014705 0.0045160996
000370 d4 19 cc 3d f6 97 ad 3d b3 6b cf 3c 6f 78 c5 bd
       0.09965864 0.0847625 0.02531991 -0.096421115
000380 aa 3b 33 bc cd 58 4c 3d 69 53 94 bd c2 7e 56 bd
       -0.010939518 0.049889375 -0.07242472 -0.05236698
000390 a6 0b 98 bd ba 8e cb bd e6 6f c5 bc 16 05 1e bd
       -0.07424097 -0.09939332 -0.024101209 -0.03857907
0003a0 6d 70 56 3d 27 36 c0 3d c6 11 0c 3c a7 3b be bd
       0.05235331 0.09385329 0.008549159 -0.092887215
0003b0 73 7b 6c bd a5 f5 9d bd 6d 85 31 bd a6 3c 10 bc
       -0.057734918 -0.077128686 -0.043340135 -0.008803522
0003c0 d4 17 96 bc 74 af 16 3d ff fa cf bc 8c a0 91 3d
       -0.018321909 0.03678842 -0.025388239 0.071107
0003d0 ba 9d 24 3d eb 7e 24 bd 9e 2d aa bd be 23 a1 bd
       0.040189482 -0.0401601 -0.08309482 -0.078681454
0003e0 6a e9 e8 bb 2e c9 43 3d 71 b6 63 3d e4 92 20 3d
       -0.0071079032 0.04779928 0.05559391 0.039202586
0003f0 c5 e7 45 bd d9 3c 6d 3d d6 02 57 3d 1c 13 10 3d
       -0.048316736 0.057919357 0.05249294 0.035174474

actor.4.bias f4 [128]
000000 3b c1 b1 3c d5 77 b4 bd 9d 34 b2 bc 01 28 80 bd
       0.021698585 -0.08811919 -0.021753604 -0.0625763
000010 26 da 35 bd 72 36 7d 3d 0a 09 de 3d 38 24 58 3d
       -0.044397496 0.0618195 0.10841568 0.052768916
000020 88 fc 13 bd 40 f3 db 3c 92 1b 68 3d f5 39 62 bb
       -0.036129504 0.02684939 0.056666918 -0.0034519408
000030 16 48 73 bd 33 f1 08 be 34 2b 65 bd 55 76 32 3d
       -0.05939492 -0.1337326 -0.055949405 0.04356988
000040 4e c4 65 bd 55 75 86 bb 96 f5 6b bd e7 9f 53 be
       -0.056095414 -0.0041033425 -0.057607256 -0.20666467
000050 72 21 ef 3b d3 7c 33 3c 4e ad 3d 3b dd 47 2c 3d
       0.007297688 0.010955053 0.002894241 0.04206072
000060 c7 ba 17 bd 7c 78 cf 3b 1b 9a 83 3c db de ea bc
       -0.03704336 0.0063315015 0.016064694 -0.028670719
000070 7a ae df bc ba ec 24 bd 4a d9 09 3e 2b 95 33 bd
       -0.027304877 -0.040264823 0.13461795 -0.04384343
000080 2d 76 b7 3c 01 4e 8a bd 4b 19 67 3d 9e 40 69 bd
       0.022395218 -0.06753159 0.056420606 -0.05694639
000090 b5 67 b6 3d 89 73 00 3c 59 c8 8e bd 6a ca 06 be
       0.08906499 0.007840046 -0.06971807 -0.13163152
0000a0 52 d5 9e bc f6 d4 a6 bc 41 9c 23 3d 88 ce c8 3b
       -0.019388828 -0.02036522 0.039943937 0.006128136
0000b0 a3 9c c5 bc 8f 4f 05 be 13 01 c3 3d 52 90 79 bc
       -0.024122542 -0.1301863 0.09521689 -0.015232163
0000c0 4b 26 11 3b 09 61 cb 3d 0c 6c 1f 3d de 49 c9 bc
       0.0022148069 0.09930617 0.0389214 -0.024571355
0000d0 ae db a5 bc d6 a7 b5 bd a6 5d aa 3c 14 a7 3d 3d
       -0.020246353 -0.08869903 0.020796608 0.046301916
0000e0 6b 89 4c bd fd e8 ce bd c2 bd 50 3d 9d 5a 6d 3d
       -0.04993574 -0.10103033 0.050962217 0.057947744
0000f0 0a 80 cb 3c 9b 59 1c bd 15 91 1e 3d c8 7f 9f 3b
       0.024841327 -0.038171392 0.03871258 0.0048675276
000100 34 08 d2 3d bd d4 86 3c 42 b4 60 bd 5c eb 88 3d
       0.10255471 0.016458863 -0.054859407 0.06685516
000110 ef a8 38 bc 76 37 26 bc 42 4c 9a 3a d7 32 06 3d
       -0.011270746 -0.010145059 0.0011771994 0.03276333
000120 a2 a5 29 3d 6b d3 c0 3d b6 12 d6 bd d4 b9 b0 3c
       0.041417725 0.09415325 -0.104527876 0.021572985
000130 a0 78 87 bd fa 57 19 bd f9 f3 38 3d 48 83 56 bd
       -0.06614804 -0.037437417 0.045154545 -0.052371293
000140 d9 65 75 be 16 1c 85 bd 6a f3 98 bd cd c1 37 bd
       -0.23964633 -0.064994976 -0.074683025 -0.044862557
000150 ad c4 7d bd 8d 37 5e 3d 4a 24 a0 3c 44 e0 8a 3c
       -0.061955143 0.054252196 0.019548554 0.016952641
000160 6b e7 d6 3b 7e f7 88 bd 69 b6 44 3d b8 7c 95 3c
       0.006558349 -0.066878304 0.048025522 0.018247947
000170 dd 27 82 3c 47 2f 78 3c 1e 37 e2 3c d0 f7 1c bd
       0.015888149 0.015147991 0.027614173 -0.03832227
000180 30 52 8a bd 82 76 04 3e 32 41 bd bd f5 2b b5 3d
       -0.06753957 0.12935832 -0.09240951 0.08846275
000190 53 3c 89 bd 9f a1 0b bd 8c ff 89 bd 44 cd 9c 3b
       -0.06700959 -0.03408968 -0.06738195 0.0047852118
0001a0 15 75 9c bd 00 de 86 bd 82 69 af bc 0e 3e c1 bb
       -0.07639519 -0.06585312 -0.021412615 -0.00589729
0001b0 04 ae 27 be 90 81 3d be 3c 02 82 bd 05 59 e6 bd
       -0.16374975 -0.18506455 -0.063480824 -0.11247448
0001c0 e6 ad 52 bd 8b 04 68 bb 0c 99 ff 3c cd b3 50 3d
       -0.051435374 -0.0035403098 0.031200908 0.05095272
0001d0 4d 1b 1e bd 25 e9 18 3d e5 0f 0e bd bb 64 86 bc
       -0.038600255 0.03733172 -0.034683127 -0.016405454
0001e0 a8 8e e2 3d c4 c6 4c 3d b2 a1 bb 3c 9b 12 a4 bd
       0.11062366 0.049994245 0.02290425 -0.08011361
0001f0 d7 f2 54 bd 23 2e db bc 7c 89 5a bd fd 9e 47 3d
       -0.051989403 -0.026755398 -0.05335377 0.048735607

actor.6.weight f4 [14, 128]
000000 d0 da 24 3b 8e 35 55 3d be 25 13 bc 3e bf db 3d
       0.0025154836 0.052053027 -0.008981166 0.10729836
000010 c9 20 4b bb ff b5 4d bd 05 3e b0 bc a1 ce 9e 3c
       -0.0030994883 -0.050222393 -0.021513948 0.019385638
000020 a7 c3 5f bd e9 0d 3f bd 8c d3 24 3c 00 a8 06 bc
       -0.054629948 -0.046644125 0.010060202 -0.008218765
000030 cf 2e df bb 03 52 87 3d 0c a0 70 3c 64 05 96 3c
       -0.006811 0.06607439 0.014686596 0.018313117
000040 62 c2 1b bc 5d d0 07 bb 6b b9 09 3c a9 55 51 3c
       -0.009506794 -0.002072356 0.0084060235 0.012776771
000050 c3 98 1c bb 5d f9 ad 3d cc 06 45 3d 7f 1c ab bc
       -0.0023894764 0.08494828 0.048102185 -0.020887611
000060 61 82 97 bc 49 e0 e2 3c e0 de 41 bc fd 41 21 3c
       -0.018494787 0.027694838 -0.011832923 0.009842393
000070 d3 6c fb 3c 0d 1d 5b bd 15 a4 a7 3d f5 bf c2 ba
       0.03069154 -0.0534945 0.08185593 -0.0014858233
000080 55 c8 3e bd 44 19 23 bd bd 7c be 3b a7 62 1b bd
       -0.04657777 -0.039819017 0.00581321 -0.03793588
000090 d4 e6 07 bd a2 19 c6 3c fc ba 39 3c 5c 75 55 bd
       -0.03317912 0.024182145 0.011336084 -0.052113876
0000a0 a6 c8 49 3c b6 c7 62 3a 40 4f bf 3c 04 10 a5 bb
       0.012315905 0.0008650975 0.023353219 -0.0050373096
0000b0 49 19 d7 3c e6 e5 90 bc ec fa 20 bd eb 4b 5d 3d
       0.026257174 -0.01768775 -0.039301798 0.05402748
0000c0 0a c9 46 3c 18 de 86 3d a2 64 7c 39 79 b5 a8 3c
       0.012132892 0.0658533 0.00024070081 0.020594345
0000d0 8d 64 42 3a a5 4d b9 bc b2 74 12 3d 6e 2f 1e 3d
       0.0007415496 -0.022620032 0.03575582 0.03861945
0000e0 4d 61 1e 3c e1 a1 2c bd 32 ed fd 3b 8d 0a 8a 3c
       0.009666753 -0.042146567 0.007749223 0.016850734
0000f0 1e 85 60 3c 46 79 4d bc e1 d4 57 3d 78 71 c2 3c
       0.013703613 -0.012541121 0.05269325 0.023735747
000100 19 d3 6f 3d 5f 17 5a bd 5b 15 88 3c e0 92 c1 3c
       0.058550928 -0.053244945 0.016611746 0.023629606
000110 65 81 a4 39 ef b9 d2 bc ec dc a2 bc fb 99 ee 3c
       0.00031376924 -0.025723426 -0.019880734 0.029126158
000120 39 0c 50 3d 09 cd e1 3a 33 63 7d bc 8a 46 e7 bc
       0.050792906 0.0017227243 -0.0154655455 -0.028231878
000130 70 b0 01 3a e6 69 37 bb db 40 8d 3c 1d 3a 6b bc
       0.00049472507 -0.0027986704 0.01724284 -0.014357117
000140 53 dd a8 bd b7 e4 c1 bb dc 12 d5 3b 31 d3 1c bd
       -0.08245339 -0.0059171575 0.0065024924 -0.038287345
000150 2f 18 31 bd 19 c4 bf bc 96 4a c9 bc b6 06 ab 3b
       -0.043235954 -0.023408936 -0.024571698 0.005219306
000160 df 78 d9 3b 26 c8 55 bd 35 d3 da bc 14 16 66 3d
       0.0066367234 -0.05219283 -0.02671204 0.0561734
000170 d1 4e 1b 3b d2 b6 97 3c b6 3b 3f 3d 70 6d 00 3d
       0.0023698101 0.018519793 0.046687804 0.031354368
000180 3f 14 31 bd 88 99 84 3d 44 d2 d1 3d a7 45 97 3d
       -0.0432322 0.06474596 0.10245183 0.07386332
000190 8a 60 cd bc 4d e6 2c bc 85 11 db 3d 89 1e 09 bd
       -0.025070447 -0.010552955 0.10696701 -0.033476386
0001a0 b5 34 b4 bc 61 78 04 bd 03 06 8a 3c 44 66 ed 3b
       -0.021997789 -0.032341365 0.01684857 0.007244857
0001b0 af b5 75 bd 92 0a e9 bb 48 f6 0e bd a3 f1 41 bc
       -0.05998772 -0.007111856 -0.03490284 -0.011837396
0001c0 28 30 30 bd 48 a9 c4 3c 9d aa 48 3c d0 c6 86 3d
       -0.043014675 0.0240065 0.012247709 0.06580889
0001d0 cd 06 ec bc 9a 4b d5 3c f4 74 61 bc 9d 4d 34 bc
       -0.028811837 0.026037026 -0.013760794 -0.011004833
0001e0 5e 90 81 3c 68 35 bf 3d e3 f2 b7 3a 5b 51 d6 bc
       0.01581591 0.09336358 0.0014034178 -0.02616184
0001f0 e4 72 f8 3c f1 64 a5 bc c7 80 2b bd 18 ea b1 bc
       0.030328222 -0.020189734 -0.04187086 -0.02171807
000200 35 62 8d 3c a0 ea 9c 3d 69 bc d0 3c 41 e8 36 bd
       0.017258743 0.07661939 0.025480466 -0.04465509
000210 83 eb f4 bd 48 9a 9f bc e0 89 4c bd 35 ce 4f 3c
       -0.11958983 -0.019482747 -0.049936175 0.012683441
000220 8d 38 ac 3c f7 25 7b 3d a2 53 a9 ba d6 79 03 3d
       0.02102306 0.061315503 -0.0012918601 0.032098614
000230 e5 d5 21 bd 04 08 79 3c d1 48 ee bc 55 c5 7e 3c
       -0.039510626 0.015199665 -0.029087456 0.015549977
000240 61 93 8b 3c 97 7e 3d 3c 73 fc 6a 3b 44 31 57 3c
       0.01703805 0.011565826 0.0035856038 0.013134304
000250 1c 08 8b bd 97 6c 8b 3d 83 17 86 bd a5 f0 89 bb
       -0.06788656 0.06807821 -0.06547453 -0.0042095953
000260 08 d6 cc 3c c0 1d a6 bc 88 ce 16 3d 73 9a be 3d
       0.025004402 -0.020277858 0.036818057 0.093068026
000270 63 c0 45 bd b0 1b 9b 3c ea 3c 29 3d a6 58 ee 3c
       -0.048279177 0.0189341 0.041317858 0.029095005
000280 11 ac 12 bd bb 0c 0b 3d 66 81 97 3c e6 2f 07 3d
       -0.035808627 0.033947688 0.01849432 0.033004664
000290 25 9d b3 3c 44 16 0c bc e8 62 7c 3c 7b 24 35 bd
       0.021925518 -0.00855023 0.01540444 -0.044224244
0002a0 29 1b 0e 3c 1b ce 2e 3c 44 1d 0e 3d ec 9c 4b 3d
       0.008673468 0.010669257 0.03469588 0.0497102
0002b0 7b ec 82 bd 7f 6e 02 3d 62 7b cd bb d6 aa 9a 3d
       -0.06392761 0.03184366 -0.006270812 0.075521156
0002c0 c2 d4 af bb cf 43 4d 3d 18 df c1 3c 6e c2 27 3c
       -0.005365939 0.050113495 0.02366595 0.010239227
0002d0 27 c4 4e 3b 3b 1b 89 bb d3 3a 94 bb 6d 39 ff bc
       0.0031550021 -0.0041841543 -0.004523614 -0.031155312
0002e0 25 d5 ed bc 2d 76 91 3d 91 b9 e7 bc 4e eb 93 3c
       -0.0290323 0.07102618 -0.028286727 0.018056538
0002f0 65 4f a2 bc d6 8d 24 bc ea de da bb 73 bb e0 3c
       -0.019813249 -0.010043582 -0.0066794055 0.027433133
000300 56 32 ec 3b 88 de 15 3c 2f ee f1 bb a2 68 84 3c
       0.007208149 0.009147294 -0.00738313 0.016163174
000310 ad ec e2 3c 55 67 6d bc e0 e0 49 bd 48 85 d2 3c
       0.027700746 -0.014489968 -0.049286723 0.02569832
000320 eb e9 85 3c c4 76 cf bc c6 a4 ae 3b 3c 7b 36 3d
       0.016346892 -0.025325187 0.005329701 0.04455112
000330 f4 40 13 bd 03 be 41 bd a9 46 9d 3c ef b3 5e bc
       -0.035950616 -0.04730035 0.019198732 -0.013592704
000340 d1 cb 8c bd 2f a0 de bb 18 e5 63 bb 16 ea f5 3c
       -0.068748124 -0.0067939977 -0.0034774002 0.030018847
000350 9e fd 7e 3d 90 b0 4e bc ca 8e 9d bc 26 13 b3 3b
       0.062253587 -0.012615338 -0.019233126 0.005464929
000360 9e 37 9f 3b 52 2e 27 bd 02 52 47 bc f6 7d 83 bd
       0.004858925 -0.04081566 -0.012165548 -0.064205095
000370 eb 09 f0 3c ca 96 b6 bc 25 f9 15 bd a3 0f 0c bd
       0.029301604 -0.022288699 -0.036614556 -0.0341946
000380 de 35 2f 3d 29 53 da 3c dc c6 07 3d 52 87 a9 bd
       0.04277598 0.026650982 0.03314863 -0.082777634
000390 7e 33 f5 bc 2b 2b b7 bc 6d 9d 1f bd 72 fd 92 bd
       -0.02993178 -0.022359451 -0.038968492 -0.07177247
0003a0 8b 56 a5 3c 9b 66 62 bc de d2 c2 3c aa 5a 05 bc
       0.020182868 -0.013818408 0.02378219 -0.008139292
0003b0 93 de a6 3d b0 d9 cf bd 6a 6c fa 3c e5 99 ec 3d
       0.081479214 -0.101489425 0.030569274 0.115527906
0003c0 e3 66 61 bd 70 ef 3b 3c 7d 85 aa bc b9 c4 82 3d
       -0.05502976 0.011470661 -0.020815605 0.06385178
0003d0 26 52 db 3c 79 32 89 3d d5 e6 00 bc 04 55 8e bd
       0.02677257 0.0669908 -0.007867535 -0.06949809
0003e0 ff 88 c0 3c af f5 92 3c c7 a0 65 bd d5 54 b0 3c
       0.023502825 0.017939417 -0.056061532 0.021524826
0003f0 e3 10 1c 3d 4b 01 4d 3c 05 30 5d 3d 9c d3 72 3d
       0.038102042 0.012512515 0.054000873 0.059283838

actor.6.bias f4 [14]
000000 35 5c da 3d 7f 01 2c 3d c3 0e d9 3b 03 91 66 bd
       0.10662118 0.041993614 0.006624074 -0.056290638
000010 e1 c6 39 bc 2e 7c c1 bd bd d5 a5 3d b5 ea 7e 3d
       -0.01133892 -0.094475135 0.08097408 0.062235553
000020 12 55 ba 3b 83 5c 58 3d 7b 27 a9 bd 09 28 70 3a
       0.0056864107 0.0528226 -0.082594834 0.0009161239
000030 4c 39 f3 3b c1 28 cd bd
       0.007422602 -0.10017539

normalizer._mean f4 [1, 81]
000000 a4 0a 1e 3e e5 1a 08 3e 0f 0c 5e 3e 14 09 73 3d
       0.15433747 0.1329151 0.21684287 0.05933483
000010 8d d5 ab bd 92 59 4e bf 41 f2 8b bb 18 f4 6c 3a
       -0.08390341 -0.80605423 -0.0042708223 0.00090390584
000020 64 da 03 bb 48 d7 7f 3e c6 5a 47 b9 09 f2 cb 3d
       -0.0020119185 0.24984467 -0.00019011935 0.09958274
000030 dc 5d 3c 3a cb 7a c6 39 17 ce ce 3e 38 9d cf be
       0.0007185617 0.0003785699 0.4039161 -0.40549636
000040 8c 03 f1 b8 c6 79 38 39 b4 d9 32 3f 5b 5a 4b 3e
       -0.00011492436 0.00017592972 0.6986344 0.19858687
000050 08 cd 3e 3d bd cf 7f 3e 12 3e 02 be a4 b4 1f be
       0.04658225 0.2498159 -0.1271899 -0.15596253
000060 2b 5b 90 be 30 13 22 be 2a 25 74 bd 92 01 e8 bd
       -0.28194556 -0.15827632 -0.059605755 -0.113284245
000070 85 60 90 be a1 54 fa 3b 87 20 3d 3e a6 88 48 3e
       -0.2819864 0.007639483 0.1846944 0.19583377
000080 c8 8a 0f 3e e4 64 09 3d f1 49 6f bd e6 49 a5 3b
       0.14017785 0.033543482 -0.058420125 0.00504421
000090 f6 89 3d 3d b4 66 52 bc 9b 67 18 be bb 1e cc 3d
       0.046274148 -0.012841869 -0.14883272 0.09966799
0000a0 ee c7 d6 3c 23 eb c4 bb 48 76 ad bc 64 ed a4 3c
       0.02621838 -0.006009476 -0.021174565 0.020132728
0000b0 59 d1 80 3c 7b a1 bc 3c 4f fd 93 3c 52 44 45 bf
       0.015724825 0.023026219 0.018065123 -0.77057374
0000c0 82 4c 49 40 bf e2 80 c1 31 3b 93 bf ab ee 09 3f
       3.1452947 -16.110716 -1.1502439 0.53879803
0000d0 22 1d 1d c0 84 54 7a 41 52 d7 bb bf 9a 3a 7e 3c
       -2.4549031 15.645634 -1.4675086 0.015516901
0000e0 46 cd 23 3f 55 47 9b 3e b4 0b e0 3d 53 da 61 3e
       0.639851 0.3032786 0.10939732 0.2205594
0000f0 5a fc ec 3b 40 ca 38 3f 09 b4 fd 3e 6e 37 23 bf
       0.007232231 0.7218361 0.49551418 -0.63756454
000100 aa 51 4d bf a7 3b 12 bf 16 bc b3 bf d1 66 7a 3f
       -0.80202734 -0.5712227 -1.4041774 0.97813135
000110 52 81 22 bf f4 a3 e6 be 9d 10 7d bf 13 64 dc 3d
       -0.6347858 -0.4504696 -0.98853475 0.10761275
000120 16 34 5c 3f b7 b4 83 3f 6b bd 13 3f af 4e 03 3c
       0.86016977 1.0289525 0.57710904 0.008014365
000130 18 55 54 3e fa f9 9f 3f 00 00 00 3f 00 00 00 3f
       0.20735586 1.2498162 0.5 0.5
000140 a6 87 19 3e
       0.14993152
